data/model_CO_BC_hsc_SPIDERz_SPIDERz.pth (torch, 164224 bytes, 7 tensors)

input_layer.weight f4 [128, 40]
000000 d8 d8 1a be bc 7f 09 3c ea 5e 0c be 1c fa 07 3d
       -0.15121782 0.008392271 -0.13708082 0.033197507
000010 c5 13 47 be a7 a0 9b bd 3b c7 1a be 2d 19 53 be
       -0.19441135 -0.075990014 -0.15115063 -0.20615073
000020 ac 64 7a bd 45 d2 a2 bc 8a f4 54 3d 93 58 00 be
       -0.061131164 -0.019875655 0.051991023 -0.12533788
000030 ae 17 22 bd 6a 18 5e bd cb f0 45 bd c6 71 51 3d
       -0.039573364 -0.0542225 -0.04832534 0.051133893
000040 fa f5 18 be b9 08 12 be 69 fe de bd 1e a7 21 be
       -0.14937583 -0.1426114 -0.10888369 -0.15786406
000050 8a f2 22 be 7e 54 82 be a3 5b d5 bc e1 4d a7 3d
       -0.15912834 -0.25455087 -0.026044672 0.08169151
000060 fa 3e 2d 3d 29 c1 81 3d 70 4a 29 be 35 bc 04 be
       0.042296387 0.063356705 -0.16532302 -0.1296242
000070 75 40 1d 3c 0b e6 61 3d f9 81 2c be d8 24 85 bd
       0.009597887 0.055151027 -0.16846456 -0.06501168
000080 ca ad c0 bb 29 d1 8e bd 6f 10 ea 3c 20 61 5a 3e
       -0.0058800923 -0.06973488 0.02857229 0.21326113
000090 01 3e 09 bd 89 68 5b 3e a2 f7 23 3c bb 08 41 3e
       -0.033506397 0.21426596 0.010007771 0.18850987
0000a0 0d 4a fe be 1b 79 82 be 7d 46 6d be 8d e9 ad be
       -0.4966587 -0.2548302 -0.2317142 -0.33967248
0000b0 03 06 cd bd ea 15 a8 be d8 71 bb be 6c dc d2 bd
       -0.10010912 -0.3282922 -0.36610293 -0.102959484
0000c0 13 a2 73 3e 7a e9 9a 3e 86 57 88 be 2e 0e 1b 3e
       0.23792295 0.30256253 -0.26629275 0.15142128
0000d0 d3 e3 15 3e af 22 21 bd 91 80 6f 3d c8 c1 dd 3e
       0.1463769 -0.039339717 0.05847222 0.43311906
0000e0 68 95 9a bd ba 51 f8 3d 8e b0 a9 3e b2 33 eb be
       -0.07548028 0.12124963 0.33142513 -0.45937878
0000f0 02 72 83 3e 7b 72 03 bd 08 9b 83 3e a0 4b 0e 3f
       0.2567292 -0.0320916 0.25704217 0.55584145
000100 3d 38 cb 3e c8 51 53 3e ba ed ce 3e 83 50 1e bd
       0.39691344 0.20636666 0.40415746 -0.038651
000110 7d 7c 84 3d 89 df 83 3e 84 1b c1 3e ad 9d 87 be
       0.06469057 0.2575648 0.37716305 -0.26487485
000120 f5 e5 8e 3c 0b 03 e9 bc cf 78 69 be 2a e6 9b be
       0.017443636 -0.028443834 -0.22799991 -0.3044904
000130 5d 38 5a be 2d c1 57 be 94 62 16 bf ee 2e 9f 3e
       -0.21310563 -0.21069784 -0.5874417 0.31090492
000140 3e e3 a1 bd c1 b0 3c 3d f5 52 19 bb 9a 75 00 be
       -0.07904671 0.046067003 -0.0023395394 -0.12544861
000150 29 81 3a 3d 6f 2a e5 3d 23 a6 e1 bd 99 41 22 be
       0.045533333 0.11189734 -0.11018016 -0.15845336
000160 d3 70 a6 3d 2a 45 0f 3d 98 c3 04 3e 49 96 e1 3d
       0.08126988 0.03497807 0.12965238 0.11014993
000170 11 88 09 bd 73 9b f4 bb cf f9 02 be c7 17 36 bd
       -0.03357703 -0.00746482 -0.12790607 -0.04445627
000180 cf 99 0a be db cc 3f be 59 fc dc 3d a7 9a 18 be
       -0.13535236 -0.1873049 0.10790319 -0.14902745
000190 40 64 06 be c1 d3 a3 bd b6 b9 a5 bc 3e f3 eb bc
       -0.1312418 -0.07999373 -0.020230155 -0.02880251
0001a0 ed b2 d7 3d 2e e3 ed 3d ff 3b 30 be 40 80 11 be
       0.10532174 0.11615597 -0.17210387 -0.1420908
0001b0 64 a8 bf 3d 60 5a c9 bc e4 9c af bd 10 12 36 be
       0.0935829 -0.024579227 -0.085748464 -0.17780328
0001c0 3e 06 26 be e4 be 89 3d 62 85 ba bc ef ed c9 bd
       -0.16213319 0.067258626 -0.02276868 -0.09859835
0001d0 83 b0 07 be 67 b4 de 3d b7 48 24 be b1 cc 06 39
       -0.13250928 0.10874253 -0.16043364 0.0001285549
0001e0 97 69 56 3b 8b 51 60 bc c9 92 98 bd 6d 36 3e bd
       0.0032716745 -0.013691316 -0.07449872 -0.046438623
0001f0 86 b0 3b be 86 2e 27 3d 88 4f 44 be 93 ee ee 3d
       -0.18329057 0.040815853 -0.19170964 0.11666598
000200 5c 95 99 3c 91 8c 4e bc af db eb 3c de 61 18 3d
       0.018747978 -0.012606756 0.028791277 0.03720271
000210 55 64 0f be 33 98 f4 bc da 0f 0b 3e ab ba dd bd
       -0.14003117 -0.02985773 0.13580266 -0.1082662
000220 94 36 bb bd ff f3 5c bc 25 b9 a4 bd c2 d8 27 bd
       -0.09141269 -0.013485908 -0.08043126 -0.0409782
000230 98 35 94 3d 1b ee 54 bd 2d f8 9f bd 14 c3 ef bd
       0.07236785 -0.051984888 -0.07811008 -0.1170713
000240 21 5b 01 3e fb 30 90 3c 9f 0b d2 3d 83 3e 93 bd
       0.12632419 0.01760148 0.10256123 -0.071896575
000250 a3 e4 4b 3d 6b 32 89 3d ff 41 6c 3d 87 93 cc bd
       0.04977859 0.066990696 0.057680126 -0.09989076
000260 11 2e 9a 3c bc c3 0d be 3d 39 eb bd a8 93 67 bc
       0.018820794 -0.13844198 -0.11485527 -0.014134325
000270 88 f3 19 be 7f 0d 9c 3d 64 10 19 3d e1 81 31 bd
       -0.15034306 0.07619762 0.037369147 -0.043336753
000280 00 71 ae be fb 64 9c be 89 74 6d 3d 63 35 95 3e
       -0.34070587 -0.30545792 0.057972465 0.29142293
000290 21 b0 8b 3d 89 a8 e3 be 27 12 e6 be 96 04 01 bf
       0.06820703 -0.4446452 -0.44935724 -0.5039762
0002a0 17 74 8f be cf e4 0e bc 0b e0 21 3e 3e a2 a9 3e
       -0.28018257 -0.008721544 0.15808122 0.33131593
0002b0 bd 19 89 3e ae 9b c9 bd 27 8a c9 3d 8f 16 05 3e
       0.2677745 -0.09844147 0.098408036 0.12996887
0002c0 92 19 47 be bc b0 f7 bc d7 e2 e5 bd d2 8b c5 bd
       -0.19443348 -0.03023564 -0.11224907 -0.09645809
0002d0 e6 b4 f2 be 9f a7 d8 be ae 90 90 be 53 6d 99 be
       -0.4740364 -0.42315385 -0.28235382 -0.2996622
0002e0 86 5c 66 bf 99 6e 66 bf 8c bd d1 be 08 3e b5 3e
       -0.8998493 -0.9001251 -0.40964925 0.3539889
0002f0 2f 67 01 be 7b fa 07 be 73 60 56 3b 4d 6e 57 bc
       -0.12637018 -0.13279144 0.0032711297 -0.013148856
000300 47 2b 29 bd 46 29 6c 3e 2b 25 00 be 94 a3 cd 3e
       -0.041301038 0.2306262 -0.12514178 0.40163863
000310 8a 1d 0a 3e d4 8a 66 3e 27 40 0b 3f 44 5b 4e 3f
       0.13487831 0.22513896 0.54394764 0.8060801
000320 22 5f c2 3d a0 bd 66 be 08 22 88 be 5b c7 55 be
       0.094908014 -0.22533274 -0.26588464 -0.2087683
000330 68 ee 4e 3d 80 e0 ba bd 00 eb af be 40 6d ca bc
       0.05052033 -0.09124851 -0.34358978 -0.024710298
000340 87 3e a4 3d 87 2a a2 bc 96 16 e5 bd 79 a4 55 bd
       0.08019739 -0.01979567 -0.111859486 -0.052158806
000350 2c 64 78 3e ea 83 85 bd b1 fb ff bd a0 91 c9 3d
       0.24256963 -0.06519301 -0.12499178 0.09842229
000360 c5 01 59 3d ad 71 14 be eb 30 ac bc e5 99 d8 bc
       0.052980203 -0.14496489 -0.02101942 -0.02644057
000370 e0 da 10 bd b8 94 8b bd 93 9b 8b 3d 4a 8d 9b 3e
       -0.035364985 -0.06815475 0.06816783 0.30381233
000380 32 24 ab 3d 4b f7 0f 3b d5 03 49 3e 20 e7 57 be
       0.08356513 0.0021967466 0.19630368 -0.21084261
000390 a8 32 ba bd ea a3 f1 bd 6f 81 17 3e 91 c1 ce bd
       -0.09091693 -0.11798842 0.14795469 -0.100955136
0003a0 ba a1 29 be 31 f4 b2 3b d3 c5 01 be bd 58 be bd
       -0.165656 0.005461239 -0.1267312 -0.09294269
0003b0 b3 a1 11 3e 32 9f ff bd e6 85 8a be 41 82 61 3e
       0.1422184 -0.12481536 -0.2705528 0.22022344
0003c0 57 9b f2 3d 29 e5 99 3d 03 de 3c 3d 5c e9 8f 3c
       0.11846035 0.07514412 0.046110164 0.01756733
0003d0 7a fc cc bd f1 8d a1 3d 51 31 5c bd 0f f6 c5 3d
       -0.100090936 0.07888401 -0.05375797 0.096660726
0003e0 01 56 1c bc 21 1e 76 b8 fb f1 ff bd 45 a6 18 be
       -0.009541989 -5.867903e-05 -0.12497326 -0.14907177
0003f0 48 fd 8e 3d e8 a9 0f bd 46 7f 78 3d 02 36 4a bd
       0.06981903 -0.035074145 0.060668252 -0.049367912

input_layer.bias f4 [128]
000000 88 d0 9c 3d 52 02 61 3e 24 5b 14 be 72 6c 0b be
       0.07656962 0.21973541 -0.14487892 -0.13615587
000010 4c de 10 3e b2 f8 a1 bc 5f 52 24 3c 43 b4 40 3c
       0.141473 -0.019771907 0.010029404 0.011761728
000020 b6 a0 6a bc 26 82 84 bd a0 b6 02 3e 10 74 1e be
       -0.014320543 -0.06470136 0.12764978 -0.15473962
000030 3d f9 dd bc 2b ae 17 3e f0 3c dd 3c 85 6f 05 bd
       -0.027096385 0.14812534 0.027006596 -0.032577056
000040 8b d8 e3 bd 07 5b 88 bc 55 10 ba bd 5b ad fd 3d
       -0.11125287 -0.016644968 -0.09085146 0.123865806
000050 f5 bb c0 3c 4b ce 07 bc ea e5 64 3d 16 fc 09 3e
       0.023527125 -0.00828893 0.055883326 0.1347507
000060 3a 28 87 bd f2 15 ad 3d d4 53 85 3b 8b 46 15 be
       -0.065994695 0.08451451 0.004068831 -0.14577691
000070 0d 98 ce 3c a0 12 d9 bd 9a 0d 97 bd db e2 fa bd
       0.025218988 -0.105992556 -0.07375641 -0.122503005
000080 47 e7 0d 3e 86 4a 06 3e 94 8a 90 bd d8 c0 2f 3b
       0.13857757 0.13114366 -0.07057682 0.0026817825
000090 e2 d2 28 bd e1 74 a3 bd ff 0b a5 bd 8c 06 cd bd
       -0.04121674 -0.07981277 -0.08058929 -0.10011014
0000a0 28 39 ae 3d e3 56 c8 3d 3f d8 8c bd 1e b7 db bd
       0.085069954 0.09782197 -0.06877183 -0.10728286
0000b0 32 af d2 bb 7d aa 0b be 98 46 db 3c a0 76 63 3d
       -0.0064295763 -0.13639255 0.02676706 0.05553305
0000c0 5a fe c2 bd 79 1d ea bd a9 eb 17 be f6 36 75 3d
       -0.0952117 -0.11431403 -0.14835991 0.059866868
0000d0 7b 4d 17 be 03 48 bb 3d 7d d1 db bd aa 76 39 3d
       -0.1477565 0.091445945 -0.10733316 0.045279182
0000e0 64 55 9d bd cd 83 ee bd 30 58 a2 bd ac de ca 3c
       -0.076823026 -0.11646233 -0.07926977 0.024764381
0000f0 9d 7f 0c 3d aa fd 9d bd d1 20 24 3d 46 9e 1f be
       0.03430139 -0.07714398 0.04007036 -0.1558772
000100 cb c6 03 3e ae c1 e0 bd cd f1 0f 3e 39 24 e1 bd
       0.12868802 -0.109744415 0.14057083 -0.10993237
000110 9d cd d8 3c d6 6f a7 bc 27 80 21 3d 28 7e 31 3d
       0.026465232 -0.02043907 0.039428856 0.043333203
000120 04 ad 9b 3d 7e 10 94 bd 1d 51 1d be 95 8a a0 bd
       0.076013595 -0.07229708 -0.15362974 -0.078389324
000130 3f 8a 8e 3d 62 23 6f bd f2 21 cf 3c 1f 76 79 3c
       0.06959962 -0.058383353 0.025284741 0.015225916
000140 54 d9 08 be 41 a2 9f 3d 8c ee 9a bd 2a 37 67 3d
       -0.13364154 0.07794619 -0.075650305 0.056449093
000150 62 46 d7 3d a4 d9 34 3d 4b 9f 31 bd 62 41 7b bd
       0.10511471 0.04415287 -0.043364804 -0.06134165
000160 44 15 ec bd e4 cd 31 bc 4a 99 17 be bd 93 10 bd
       -0.115274936 -0.010852311 -0.14804569 -0.035297144
000170 d5 c3 af bc 32 8e f9 3c 80 86 b4 3c ef 2a 3f be
       -0.021455685 0.030463312 0.02203679 -0.18668722
000180 2c 4f 9d bd 5b c0 08 3d 0e d5 f8 3d 81 e4 0a be
       -0.076811165 0.03338657 0.12150012 -0.1356373
000190 a4 e1 76 3b d6 f3 50 3d fd 01 ed bd ac 8c 9d 3d
       0.0037671113 0.05101379 -0.11572645 0.07692847
0001a0 2c f8 87 bc 65 73 3f be 3d 50 df bc e7 5e b3 bd
       -0.01659783 -0.18696363 -0.02725994 -0.087583356
0001b0 8a 1b 03 3e 8f 4a a3 3d d6 d3 03 3e 72 2c 19 bd
       0.12803474 0.07973205 0.12873778 -0.037395902
0001c0 3e 0d e4 3d b6 62 d6 ba 65 16 bb bd 6c 1c ff 3d
       0.11135338 -0.0016356322 -0.09135131 0.12456593
0001d0 5a a3 7c bd 65 ec e4 3d 97 19 34 be 5a f5 85 3d
       -0.06167922 0.11177901 -0.17587887 0.06540938
0001e0 18 39 c4 3d 83 a2 2f be 75 a8 a1 bd 16 12 4f 3e
       0.09581202 -0.17151837 -0.07893459 0.20221743
0001f0 80 5c 5b bc b7 d5 f3 3c 7d 73 1d 3d 5a 1f 02 be
       -0.013388753 0.029764993 0.038440216 -0.12707272

hidden_layers.0.weight f4 [256, 128]
000000 0c ac c0 bd e0 65 aa be f2 4e 28 bd bf 57 be bc
       -0.09407815 -0.3328085 -0.041090913 -0.0232352
000010 e3 a7 b8 be 1e ac 8c be d0 81 04 3d e4 a7 b6 bd
       -0.36065587 -0.27475065 0.03235036 -0.08918741
000020 ae ec c9 3c 70 98 81 3c 44 df 58 3d 9f 65 89 3d
       0.02464899 0.015819758 0.052947298 0.06708836
000030 8e 1b 5a bd 04 96 ac bb a8 d1 06 3b fd 26 8a bd
       -0.053248934 -0.0052669067 0.0020571742 -0.06745718
000040 dd 97 6a bd 0d 91 48 bd a0 0c cf bb 72 ff 00 bc
       -0.057273734 -0.048966456 -0.0063186437 -0.007873403
000050 e0 ac ea 3c 80 bb f8 3e 3f 3e bc bb bd ac 71 3e
       0.028646886 0.4858055 -0.005744725 0.2360105
000060 a7 22 4b 3c f4 15 0e bd bc e8 d8 be 5f 82 81 3d
       0.0123983985 -0.034688905 -0.42365062 0.063236944
000070 7f 66 92 3c 46 ae 62 bd da 99 37 bd 1e 73 84 3e
       0.01787114 -0.05534198 -0.04482446 0.25869077
000080 a8 59 5e 3e 9e c4 9f bc ea cd 9b 3c e2 bf e5 bd
       0.21713889 -0.019502934 0.019019086 -0.11218239
000090 31 b5 5c 3d 66 23 7e be 32 71 63 3e 89 28 70 3e
       0.053883735 -0.24818191 0.2221115 0.23452963
0000a0 9f dd 73 bc 1f 04 d6 be 4b ee de bc a6 6e ad 3d
       -0.014884382 -0.4180002 -0.027213236 0.0846837
0000b0 0f b7 06 bf a7 16 8f 3c 5c 5c 0d 3e ea 19 fc 3e
       -0.52623075 0.017466856 0.13804764 0.4923852
0000c0 70 66 e9 bb 00 b7 41 bb ea 8c dd 3d 66 bb 8e 3e
       -0.007122807 -0.002955854 0.10817893 0.2787735
0000d0 24 ed aa bd 39 04 8d bd f6 b3 73 3c 40 5d 1a bd
       -0.08346012 -0.06885571 0.014874449 -0.037686586
0000e0 0b dd 8b 3d 29 f0 ca 3e fd 1d 00 be 15 18 18 be
       0.0682927 0.39636353 -0.1251144 -0.14852937
0000f0 f2 dd c0 bc 83 fc 48 3c 11 0e 81 be eb 5f 4d 3d
       -0.023543332 0.012267235 -0.25206044 0.050140303
000100 92 4c 16 be e5 17 c3 3e ce 77 15 3d 10 4b 16 bf
       -0.14677647 0.38104168 0.036491208 -0.58708286
000110 0d 9d bf 3b 59 a5 29 3e dd 54 d8 3e 6b 82 04 3d
       0.0058475793 0.16566981 0.42252246 0.03235094
000120 2d 1d 74 be 5c d3 87 bd 30 d7 6f 3d 38 89 06 bc
       -0.23839255 -0.066321105 0.05855483 -0.008211426
000130 d4 1c 37 bf 21 86 af 3d da a5 23 3d cb 03 d2 bc
       -0.71528363 0.08570505 0.03995309 -0.025636574
000140 53 5c fd 3d 48 02 65 3a 23 8d 3c bd f4 c7 87 3d
       0.12371125 0.00087359967 -0.046033036 0.06629935
000150 6e 19 30 3d fd 77 81 bd 43 e3 b2 bc dd db a5 3d
       0.042993 -0.06321714 -0.021836882 0.08098576
000160 f1 9c 8f be fe 4c b3 bc 36 c1 04 bd 70 0b 0a bf
       -0.28049424 -0.021887299 -0.032410823 -0.539237
000170 8a fc a1 be 96 92 84 3d 00 32 c2 39 54 09 a3 bc
       -0.31637985 0.064732715 0.00037039816 -0.019901909
000180 50 b3 b9 bd 1c f3 42 3e 21 a2 c5 3e 5f 18 41 3f
       -0.09067404 0.19038051 0.38600257 0.7542781
000190 70 99 e6 bc 20 95 32 3c 9c 20 23 3d 43 60 8e 3d
       -0.028149337 0.010899812 0.03982602 0.06951954
0001a0 5c 94 a0 bb fe 93 0d be 49 66 9e 3e a1 5a 8f bc
       -0.0049004983 -0.13825986 0.30937412 -0.01749927
0001b0 fb da 8e 3d ba b1 de 3d f8 28 20 be 1f 20 96 bc
       0.06975361 0.108737424 -0.15640628 -0.018325863
0001c0 a3 1a ca 3b f5 cb db bd 65 75 8a be a3 37 91 3e
       0.006167726 -0.10732261 -0.2704269 0.2836276
0001d0 08 eb 7d bd d3 58 7d 3a f9 22 a4 bd 8b 4a 02 3d
       -0.06199172 0.000966442 -0.08014483 0.03180937
0001e0 61 32 6b be e5 35 ce bc 27 15 02 3f e6 56 2a be
       -0.22968437 -0.025172183 0.50813526 -0.16634712
0001f0 b6 82 28 3d 75 86 00 3e fb 85 3b 3e 86 8e 5a 3d
       0.04114028 0.12551291 0.18312828 0.053358577
000200 f8 54 70 3d 86 ba 8c 3d 17 ca f5 3c 66 4d 19 3d
       0.058674783 0.06871514 0.03000359 0.03742733
000210 eb 3d 42 3f 02 43 4e bc d7 02 82 bd 02 3e 63 3d
       0.7587573 -0.012589218 -0.06348198 0.055479057
000220 bc 12 31 bc a7 5f ae 3d 15 3d 93 3d b6 d2 46 3d
       -0.010807689 0.08514338 0.07189385 0.048540793
000230 01 4e 62 bd ad 6b 3a 3d 42 f1 ef bc af e2 1f bd
       -0.05525017 0.045512844 -0.029289845 -0.03903454
000240 21 24 7f 3e 42 72 e7 3d 4c 5e 70 bd ab df 20 3e
       0.24916126 0.1130109 -0.05868368 0.15710323
000250 b6 d8 84 3d e2 7f d3 be b4 eb 05 3d 64 50 36 3e
       0.06486647 -0.41308504 0.032695487 0.17804104
000260 9a 1e cf 3d bd 1a c2 bb 12 65 c1 bd 03 86 54 3d
       0.10113259 -0.0059235976 -0.09443106 0.051885616
000270 ee 7b 52 3c 2b c7 36 bd d9 48 e1 3d cb 97 47 bd
       0.01284693 -0.044623535 0.11000223 -0.048728745
000280 41 c6 05 3e 9f b2 e6 3d 98 3d 86 3d b4 49 53 3d
       0.13063909 0.11264538 0.06554717 0.05158396
000290 f1 e1 39 bd 8c 81 ff 3e 9a a8 b8 3e e0 0e f6 3d
       -0.04538149 0.49903524 0.36066133 0.12014556
0002a0 56 64 ec 3c b8 e8 bf bd 21 3a 51 bc e2 65 26 3d
       0.028856438 -0.093705595 -0.012770207 0.040624507
0002b0 c2 f2 8b bd 38 60 95 bd a9 15 78 3d 0e 89 96 bf
       -0.06833412 -0.07293743 0.06056753 -1.1760576
0002c0 58 f6 f0 3c 54 b4 83 bd 95 ae af bd 92 81 90 bd
       0.02941434 -0.06430879 -0.08578221 -0.070559636
0002d0 b4 d9 af bd 51 f6 af 3c 2e 68 93 bc d4 2b 9b bd
       -0.085864455 0.021479758 -0.017994013 -0.07576719
0002e0 f4 b7 3d 3c 6b ad 5c 3e 87 83 db 3c 86 03 0f bc
       0.011579502 0.21550529 0.026796116 -0.008728867
0002f0 b6 3d 9d 3d 23 89 81 bd 46 a8 8c 3e a4 4d 30 3a
       0.07677786 -0.06324985 0.27472132 0.00067254365
000300 1f 1c a1 bc f6 f1 14 3e ea ba 88 bd 15 0f 06 3e
       -0.01966673 0.14545426 -0.06676276 0.13091691
000310 90 df c0 3d fb b7 38 3e 35 c4 85 3d 3d 74 2c 3e
       0.09417641 0.18038933 0.06531564 0.16841216
000320 4a 3c a7 3d 10 02 ec 3c e8 ee 9a 3d cc 6a 8e bd
       0.08165796 0.028809577 0.07565099 -0.06953964
000330 8a 18 d7 3d e9 21 91 3d 52 6d af 3e 10 3e 5c bd
       0.10502727 0.07086546 0.34263092 -0.053770125
000340 b6 21 d0 3d 7d 2f 85 bb bb 1f 65 bd b5 df b3 be
       0.1016268 -0.004064499 -0.055938464 -0.35131612
000350 90 75 c1 bc 39 12 5b 3d 57 9b 12 3c 40 55 c2 ba
       -0.023615628 0.053484175 0.008948169 -0.0014826432
000360 af 83 e9 3d 62 71 65 3d 39 51 0d 3e 6f e8 14 bf
       0.1140207 0.056016333 0.13800515 -0.58167166
000370 05 34 09 3a 7a af 25 3d e0 7c 46 bb 1f 00 fb 3c
       0.0005233887 0.04045055 -0.0030286834 0.030639706
000380 c4 16 f5 bc 95 52 9f 3e 15 77 dc 3e eb 40 45 bf
       -0.029918082 0.31117693 0.43059602 -0.7705218
000390 31 87 48 3d 63 c6 5c ba 1d 19 6c 3e 77 9d 2c 3d
       0.048957054 -0.0008421896 0.23056455 0.042142358
0003a0 33 82 39 bd d9 3f e1 3e dc 24 86 3d cc 97 bd bd
       -0.045290183 0.43994024 0.06549999 -0.092574686
0003b0 eb bf 46 bd 7e 8d 47 3d 4b 8e f7 bb 6b 8a 42 3d
       -0.04852287 0.04871892 -0.0075548044 0.047495287
0003c0 fc ec 01 3c 79 fc c3 be 0c 85 01 be 70 f5 9d 3d
       0.007930037 -0.3827856 -0.1264841 0.07712829
0003d0 b4 a9 e1 3b 02 7f 91 3d 10 88 55 3d 56 1c ae bd
       0.0068866853 0.07104303 0.052131712 -0.085014984
0003e0 0b e7 8d 3d ef e5 8e 3d 19 80 16 3e b1 53 33 3e
       0.069288336 0.0697745 0.14697303 0.17512394
0003f0 08 70 09 3d 8c 27 ca 3e 76 1f 65 3e 58 28 4c 3c
       0.033554107 0.39483297 0.22375283 0.012460791

hidden_layers.0.bias f4 [256]
000000 e8 77 60 bd 1e bd 91 bd bc 20 69 be b6 cd 1c 3e
       -0.05480185 -0.07116149 -0.22766393 0.15312847
000010 d0 c6 b8 3d 1d 89 38 be b4 cf 98 bd 2c 67 eb bd
       0.090222955 -0.18021055 -0.07461491 -0.11494288
000020 e5 92 eb bc bf 14 d0 be d3 c0 02 be e1 1a 3c bd
       -0.028756568 -0.40640828 -0.12768869 -0.04592407
000030 44 92 21 bd 9b b6 0a be 93 fb 89 3c 6a 73 f8 bd
       -0.03944613 -0.13546221 0.016843593 -0.121313885
000040 b1 1c ad bd 94 03 aa 3e 2e 62 fd bd b1 ec 98 be
       -0.08452738 0.33205855 -0.12372242 -0.2986808
000050 5f b2 d2 bd e4 d6 f5 3d 77 f9 8c bd d3 e7 15 be
       -0.10287928 0.12003878 -0.06883519 -0.14639215
000060 c8 56 54 be dd d5 c9 3d 5c 20 16 bd ad ec 6a bd
       -0.2073623 0.09855244 -0.036651954 -0.057354618
000070 71 c9 25 be 69 f1 61 bc 1d 67 15 be b0 bd f9 bd
       -0.16190125 -0.013790467 -0.14590116 -0.12194383
000080 41 53 32 bd 48 c4 6d be f0 59 db 3e 0a 57 81 bd
       -0.04353643 -0.23219407 0.42842054 -0.063154295
000090 e2 48 10 be e1 f1 9b bd f6 0a ba bd 81 7f 81 3e
       -0.14090303 -0.07614494 -0.09084122 0.2529259
0000a0 25 0b 38 bd 00 2b 32 be b2 6d b2 bd b1 5a 04 be
       -0.044932503 -0.17399216 -0.08712329 -0.12925221
0000b0 0c 9f 90 bd bd d4 b4 bd b8 2e 03 be de 2a 3d be
       -0.07061586 -0.08829639 -0.1281079 -0.18473384
0000c0 c5 21 0c be 7a fb 82 bd 3e 7b 47 be 55 fa 52 bd
       -0.13684757 -0.063956216 -0.19480607 -0.051508266
0000d0 b1 39 3e 3d af 2b 2c be 64 af 88 be 95 8d 2a be
       0.046441738 -0.16813539 -0.26696312 -0.16655572
0000e0 72 10 9a be c7 ea 21 be 3f ae 31 bc 9a 9a 70 be
       -0.30090672 -0.15812217 -0.010844766 -0.23496476
0000f0 50 b6 a2 bd 6b b5 c7 bd aa d7 a7 bd d5 ad 04 be
       -0.079449296 -0.097513996 -0.081954315 -0.12956937
000100 61 f3 83 bc d9 f6 61 bb 6b b5 23 3e 2a 9b 6f be
       -0.016107263 -0.0034479408 0.15987174 -0.23399034
000110 6e 49 b6 be 3c cc 2f be b2 fc 04 bd 99 c7 8f bc
       -0.35602897 -0.17167753 -0.03246755 -0.01755123
000120 0b d6 4f be 06 3d 9d bd ab 1b 0a be 92 2d 9b 3e
       -0.20296495 -0.07677655 -0.13487117 0.30308205
000130 5d ae 3b be cf d5 05 3e 32 17 22 be 36 83 96 be
       -0.18328233 0.13069843 -0.15829161 -0.2939698
000140 88 32 f1 bd f1 e2 ba bd 19 ec 31 3e 73 bb 06 be
       -0.11777216 -0.09125317 0.1737522 -0.13157444
000150 13 61 6c be 3c e4 08 be 6d ad 5e be cc d2 22 be
       -0.23083906 -0.13368315 -0.21745844 -0.15900725
000160 2d 0c 1c be 57 17 64 3e 07 f3 49 3d f7 9e 55 be
       -0.1523902 0.22274528 0.049304035 -0.20861422
000170 33 7f a7 bd 95 50 80 bd 45 e3 da 3e a7 6a 77 bd
       -0.08178558 -0.0626537 0.42751518 -0.060404446
000180 36 e9 4e bd e9 b6 79 3e a9 53 b9 3c 64 24 3c be
       -0.050515376 0.24386181 0.0226229 -0.18373257
000190 54 cd 02 be 5c 16 f2 bd 39 99 59 be a8 cf cc bd
       -0.12773639 -0.11820671 -0.21249856 -0.10000545
0001a0 89 00 e9 bd 86 e7 bb bc b8 10 f6 bd e3 84 e3 bd
       -0.11377055 -0.022937547 -0.120149076 -0.111093305
0001b0 d1 0b 4b be 1b 18 fe 3d a2 96 24 3e aa 04 83 bd
       -0.19828726 0.124069415 0.16073087 -0.06397374
0001c0 35 3c 45 be 74 bb 1b be d4 63 de bd 9f 38 a3 bd
       -0.19261248 -0.15208226 -0.108588845 -0.07969784
0001d0 b7 d7 fd bc 67 75 8d bd b9 23 9c bd 1c 20 05 be
       -0.03098665 -0.06907158 -0.07624001 -0.1300053
0001e0 28 93 23 be d9 ff 3c be 15 b5 0b be 8e ad d1 bd
       -0.15974104 -0.18456973 -0.13643296 -0.10238181
0001f0 b7 96 ad bd 0a 5e e8 3d 16 d1 70 be b7 e7 31 bd
       -0.08476012 0.113460615 -0.2351726 -0.04343387
000200 59 67 0f be 09 2c 8b be eb 34 ef bd 11 7e 91 bd
       -0.14004268 -0.27182034 -0.11680015 -0.071041234
000210 9a 7b 12 be cb 53 9a be e8 66 a8 bd 6b da 32 be
       -0.14304963 -0.30142054 -0.08222753 -0.17466132
000220 e8 e8 2b 3e b0 f0 1c be 4c 49 28 be d1 96 fa bd
       0.16788065 -0.1532619 -0.1643421 -0.12235797
000230 c3 fe 18 be 16 49 47 3d 67 06 34 be 19 98 03 be
       -0.14940934 0.048653685 -0.17580567 -0.1285099
000240 68 69 53 3e a7 b4 c2 bd 4e 91 25 be ac b6 49 bd
       0.20645678 -0.09507113 -0.1616871 -0.049246475
000250 c4 eb 84 bd ec b6 bb bd 30 44 05 be d4 6f 2b 3e
       -0.06490281 -0.09165749 -0.13014293 0.16741878
000260 0b 6b d8 bd 21 7a 49 3e 79 ee d3 bd 31 5d 0a be
       -0.10567292 0.19675495 -0.103482194 -0.13512112
000270 13 70 7b be 4d bf 02 bd f9 b2 08 be 6f 0d 14 3d
       -0.24554472 -0.03192072 -0.13349523 0.036145624
000280 29 88 c0 bd d0 21 90 bd 1b 41 8e be 8b dc f8 bd
       -0.094009705 -0.07037699 -0.27784047 -0.1215144
000290 65 67 2e be a5 1f b0 be f7 9e fc be 0f 8b b1 bd
       -0.1703163 -0.34399143 -0.4934003 -0.086691014
0002a0 f3 e2 ad bd b3 34 d2 bd d5 07 bc bd 60 29 12 be
       -0.08490553 -0.10263958 -0.09181181 -0.14273596
0002b0 a9 e1 24 3e 19 be 0e be 7c a3 bb bd 03 95 d0 bd
       0.16101708 -0.13939704 -0.091620415 -0.10184672
0002c0 d7 56 0b 3e 09 25 42 3d 4f 23 9f be 39 dc d1 bd
       0.13607346 0.0473986 -0.31081626 -0.10247082
0002d0 81 ae 29 be 4d 1a c9 3d 68 63 32 be 5c fc a7 3e
       -0.16570474 0.098194696 -0.17420733 0.32809722
0002e0 ad 1b 8e bd af e9 37 be ae 23 15 be 41 26 80 be
       -0.069388725 -0.17960237 -0.14564392 -0.25029185
0002f0 bf 80 95 3e 27 15 26 be 21 a1 d3 bd d2 b8 7c bd
       0.29199788 -0.16219006 -0.10333467 -0.061699696
000300 be 02 52 3e 58 77 ea bd aa 8b 2c be b8 1a 7f 3e
       0.20508859 -0.11448544 -0.16850153 0.24912536
000310 3e c4 e0 bd 81 c9 08 be f2 70 d8 3d d5 03 ff bd
       -0.1097493 -0.13358118 0.105684176 -0.12451903
000320 4e 30 10 bd f2 98 a4 3d 43 59 b2 3d 84 04 d9 bd
       -0.035202317 0.080369845 0.087084316 -0.105965644
000330 3f e4 7d 3e d5 0a d8 bc 00 e2 63 bd 9d a3 85 bd
       0.247941 -0.026372353 -0.055635452 -0.065253474
000340 55 61 31 bd 0f d4 50 be 31 f3 61 bd 4b 75 ca bd
       -0.043305714 -0.20393394 -0.055163566 -0.09885653
000350 66 08 be bd 1c af 64 3e 79 63 8b 3e 9e 00 80 bc
       -0.092789456 0.22332424 0.2722433 -0.015625294
000360 cc a5 34 be 63 e3 52 be 5f d1 c6 bd 39 3f 87 be
       -0.17641371 -0.20594554 -0.09707903 -0.26415423
000370 ba f6 e8 bd eb 08 a0 bd e1 fb 93 bd 03 95 ae bd
       -0.11375184 -0.07814201 -0.072257765 -0.085245155
000380 02 74 59 be 27 08 58 be a3 27 fc bc 6a 26 1e be
       -0.2123566 -0.2109686 -0.030780619 -0.15444341
000390 52 35 f2 bd b8 3b d6 bc 73 38 06 3e 6c 34 53 3e
       -0.11826576 -0.026151523 0.13107471 0.20625466
0003a0 6e 39 55 ba ae dd 0e 3e 26 27 33 bd ff 28 16 be
       -0.0008133863 0.13951752 -0.043738507 -0.14664076
0003b0 73 a5 15 be 89 ed 2c be 70 4c 9e be 4c ee cd bd
       -0.14613895 -0.16887487 -0.30917692 -0.10055217
0003c0 87 c5 b3 bd 0e 7b fe bd b4 6e 88 be e0 77 15 be
       -0.0877791 -0.124258146 -0.2664696 -0.1459651
0003d0 9f a0 40 3d da ea 39 3d 5f f6 35 bd cd 52 a7 3d
       0.04702818 0.045389988 -0.04442441 0.0817009
0003e0 5b 72 df 3d 56 4b 48 be 64 46 46 be 44 bb 59 bc
       0.109104834 -0.19559988 -0.1936279 -0.0132892765
0003f0 37 47 7e 3d a8 26 73 3e 87 d3 a8 3e 1e f1 16 be
       0.062079635 0.23745215 0.32973883 -0.14740416

hidden_layers.1.weight f4 [8, 256]
000000 68 2d a9 be 73 d6 5b be ca 5b 08 be e4 e8 b7 be
       -0.33042455 -0.21468525 -0.13316265 -0.3591987
000010 5d 20 1c bf 22 94 23 3f c8 ea 47 be 1a 68 a3 3c
       -0.6098688 0.6389791 -0.19523156 0.0199471
000020 54 96 54 be 1d 2e 58 3f f1 51 a7 bc 31 b3 b1 3e
       -0.2076047 0.84445363 -0.020424815 0.34707025
000030 74 bb c3 be 42 d0 59 bc 6e 2d d6 be a6 97 9d be
       -0.38228953 -0.013294281 -0.41831535 -0.3077976
000040 a0 d0 a2 bd 3e a8 9f 3e 6f a7 ab 3d 12 91 c5 3d
       -0.07949948 0.31183046 0.08381545 0.096468106
000050 d7 1f b0 be 76 e4 c0 3e f7 e1 5b bd b3 32 83 3c
       -0.34399292 0.37674302 -0.053682294 0.016015386
000060 07 18 2e bf 41 df ca 3e 84 81 aa 3e b7 1a 58 3d
       -0.6800541 0.39623454 0.33301938 0.052759852
000070 6f 6c a0 bd ae 22 08 be c4 8a 1b 3f 3f 4e f9 3c
       -0.07833182 -0.13294479 0.60758615 0.030432818
000080 a0 b3 08 bf 1e 96 20 3f bc 44 56 be 6b 46 37 be
       -0.53399086 0.6272906 -0.20924658 -0.17897956
000090 8f c6 c8 3b 65 1f cf be e8 7f 08 bf c1 1f 52 be
       0.0061271857 -0.4045364 -0.5332017 -0.20519926
0000a0 73 15 60 be 99 94 48 3d 49 a9 df bd 70 2e 39 be
       -0.21883182 0.04896984 -0.109209605 -0.18084121
0000b0 35 bf 01 be 5c 37 17 bd 59 9f f8 bc d9 a0 18 be
       -0.12670596 -0.03691803 -0.03034942 -0.14905109
0000c0 fd 7f 3d 3e f5 b5 08 be da 7d 6b be 2c c9 5c bd
       0.18505855 -0.13350661 -0.22997227 -0.05390279
0000d0 af bc b2 3e 1d 52 08 3f ae 15 d0 3e 26 42 19 3d
       0.3490958 0.53250295 0.4064154 0.0374166
0000e0 b7 f8 c5 be e6 9e d3 3c 25 fd 87 be 7e 1b 15 3f
       -0.38666317 0.025832605 -0.2656032 0.58245075
0000f0 0b a3 47 bd 83 39 8e be 44 1c 94 bd 4f 13 a0 be
       -0.048739474 -0.27778253 -0.07231954 -0.3126473
000100 fa 9d 14 be 09 66 15 be f0 2c d8 be 9f 8f 71 be
       -0.14513388 -0.14589705 -0.42221785 -0.23589943
000110 11 bc 6b 3f c1 a1 06 3f 94 58 96 3d b9 a7 cc bb
       0.9208384 0.52590567 0.07341114 -0.00624558
000120 b0 63 7d 3e e5 57 b9 bd e9 3b 4c be fb 24 8a 3d
       0.24745059 -0.09049968 -0.19944729 0.06745335
000130 45 44 74 be 91 c1 4c 3d 9b da 3d be 3e cf 2d 3e
       -0.23854168 0.049989287 -0.18540423 0.16973588
000140 08 2b ff bd 78 d6 18 3f ba 13 02 bf 67 7f 49 be
       -0.124593794 0.59702253 -0.5081135 -0.19677506
000150 c0 b4 c5 3e bc 4f 52 bd 64 a2 b8 3e 08 04 bc 3e
       0.38614464 -0.051345572 0.36061394 0.36721826
000160 68 8b aa be 43 c6 92 be 61 ae a7 be b9 ec 8f be
       -0.33309484 -0.28666887 -0.32750228 -0.28110293
000170 f4 18 07 bf cb 2d 36 be f1 78 12 bd 10 ec 72 3d
       -0.5277245 -0.17790906 -0.03575987 0.059307158
000180 f0 94 1a bd 10 c2 f7 3c 52 e2 2c 3e be 7e ad 3d
       -0.037739694 0.030243903 0.1688321 0.0847144
000190 75 89 82 3d 69 6c dd 3e 5d 12 f2 be 45 ef 1f bc
       0.06373874 0.43246773 -0.47279635 -0.009761636
0001a0 b6 cf c4 3e b3 76 62 bf 4c 5a d9 bd ae 50 72 3d
       0.3843972 -0.8846237 -0.10612926 0.059158973
0001b0 c3 d6 7c be 9b 08 e2 be 22 f2 16 bf c2 98 cb be
       -0.246913 -0.4414719 -0.58963215 -0.39764982
0001c0 15 d2 0a 3e 44 5c a2 be fb cf 43 3f 53 ca fc bd
       0.13556702 -0.31711018 0.7648923 -0.12343278
0001d0 39 25 b8 3e c9 cc da 3c 82 e7 67 be ce 82 f4 be
       0.359659 0.026708977 -0.22646907 -0.47756046
0001e0 b9 53 56 3d e7 a5 8f bd a9 e7 a5 be 02 b6 52 3e
       0.052325938 -0.07014065 -0.32403305 0.20577243
0001f0 46 a3 53 3f 23 2a f9 be 0f b5 90 3e e6 39 22 3f
       0.8267101 -0.4866496 0.28263137 0.63369596
000200 85 5e 12 bd dd be 4c bd ca 5f 2c bd 36 90 4d be
       -0.035734672 -0.04998671 -0.04208354 -0.20074543
000210 58 2a e2 3e 02 df 09 3f 02 37 43 bf 74 4a a5 3e
       0.4417293 0.5385591 -0.7625581 0.32283366
000220 b0 31 86 3e d0 a8 5c 3e 5b 32 4a bd da ab cb 3e
       0.26209784 0.21548772 -0.04936443 0.3977955
000230 61 82 56 3e e8 89 29 3f ad 77 0f be e6 04 49 3e
       0.20948173 0.66226053 -0.14010496 0.19630775
000240 52 9e 32 be 16 f9 ae bc cc 9b 9c 3d 77 61 ed 3c
       -0.17443207 -0.021359008 0.076469034 0.028977139
000250 62 bd 42 3e 1a 40 1b be d6 d5 ae be c8 06 f6 be
       0.19017556 -0.15161172 -0.3414752 -0.4805205
000260 73 36 38 bd 14 38 56 3e 3b 94 90 3a 74 5d 68 bd
       -0.0449738 0.2091983 0.0011030504 -0.05672975
000270 4e 9b 0b bf 20 d3 2b bd 52 f7 d8 bc d6 f9 a2 be
       -0.5453385 -0.04194939 -0.026485119 -0.31831235
000280 81 6b 22 bd f0 30 e1 3c 4f 3d 14 be 2c ac f5 bd
       -0.039653305 0.027489156 -0.14476512 -0.1199573
000290 49 84 7d be de 54 69 3e 62 b5 ee 3d fc 34 5b be
       -0.24757494 0.2278628 0.1165569 -0.2140693
0002a0 36 f5 9b 3a 81 1a bf 3c 6f 52 16 bf a1 61 38 3a
       0.001189864 0.023328068 -0.58719534 0.0007033591
0002b0 e6 d0 bd be d1 4f 65 3d 70 b9 00 bb 50 30 9c bd
       -0.3707344 0.055984322 -0.001964178 -0.076264024
0002c0 27 8c 90 be e6 0a ad be 4e 5c c7 3e f0 51 b1 bc
       -0.28231928 -0.33797377 0.3893761 -0.021645516
0002d0 05 a5 0c 3e e4 67 15 3d 53 5a 78 be 59 31 5b bf
       0.13734825 0.03647603 -0.24253206 -0.85622174
0002e0 c6 2a 13 bd 41 8a d6 3d 8b ee cd 3b f7 f6 ea be
       -0.035929464 0.104755886 0.00628454 -0.45891544
0002f0 f5 61 de bc a7 b6 2a be 2e 79 1c bf d1 54 11 be
       -0.027146319 -0.16671239 -0.61122406 -0.14192511
000300 08 06 59 3d 4b d7 58 be a6 07 2c be f0 3d 7b be
       0.052984267 -0.21175878 -0.16799793 -0.24535346
000310 d9 79 2c 3f 3f 15 05 3d 27 98 41 bf 81 cb a6 3d
       0.67373425 0.032490965 -0.7562279 0.08144284
000320 95 be c8 3d 42 fc 2d 3e 12 63 5b 3e 10 07 8a be
       0.09801976 0.1699076 0.21424511 -0.26958513
000330 56 eb 34 bf 63 2d 3e 3e 06 ee f9 3d 42 27 09 3e
       -0.70671594 0.18572001 0.122036025 0.13393882
000340 28 48 5f 3d c4 ab 2f 3e 5f 14 f9 3d 9c bf b0 bd
       0.054512173 0.17155367 0.121620886 -0.086302966
000350 92 b9 91 3c 70 e6 b5 3d dd 18 15 3e 80 1a 77 bf
       0.017788682 0.08881843 0.14560266 -0.9652481
000360 df 5b a0 be b7 78 c3 3d 29 71 6c be 1c 99 71 3d
       -0.31320092 0.09544509 -0.23090042 0.058983907
000370 54 34 af bd be 51 fa bd 81 25 cb bc d2 8b 73 be
       -0.08554903 -0.12222622 -0.024798157 -0.23783806
000380 01 98 a5 be 54 cd 82 be 40 82 2c be 64 07 1f be
       -0.32342532 -0.25547278 -0.16846561 -0.15530163
000390 f6 a0 0a 3f 34 4d 9d bd 4e e9 bd be 16 a7 64 3c
       0.54151857 -0.07680741 -0.3709206 0.013955852
0003a0 68 30 33 3e be 0c 10 be 3c 09 b3 be 0d 2f 92 be
       0.17498934 -0.14067361 -0.34967983 -0.28551522
0003b0 31 72 4a 3d e8 0f a6 3e 2f ed 4e 3e 0f 78 51 bc
       0.049425308 0.3243401 0.20207666 -0.012784972
0003c0 f0 89 20 be 93 0a eb 3e e7 a5 23 3f 3a 26 0a 3f
       -0.15677619 0.45906505 0.6392502 0.5396458
0003d0 e6 f1 6b be b6 db 87 3e 7b 4c f0 3c fb 56 ba be
       -0.23041496 0.26534814 0.029333344 -0.36394486
0003e0 85 7b 36 3e 8d 1a 1c be 54 40 93 be 21 2d f3 3d
       0.17820556 -0.15244503 -0.28760016 0.11873842
0003f0 92 5f 57 bd c3 1f de be 11 1d 1c bf 36 8e f9 3a
       -0.052581377 -0.43383607 -0.6098185 0.0019039575

hidden_layers.1.bias f4 [8]
000000 9f 07 40 be 6a 43 a2 bd 71 d4 1f bd cd 4b 54 3d
       -0.18752907 -0.079230145 -0.03902096 0.0518301
000010 d9 8e c7 bd 8e 04 b1 bd 6f 13 c1 bd 6b 93 f8 3e
       -0.09744043 -0.08643447 -0.09427535 0.4854997

output_layer.weight f4 [1, 8]
000000 32 73 11 be 48 c7 96 3d e7 32 6c 3d 07 84 8e be
       -0.142041 0.07362229 0.05766573 -0.27835104
000010 af e5 1b 3e 76 f0 04 3e cc b9 9a bd b7 90 9a 3e
       0.15224336 0.12982354 -0.07554969 0.30188534
