data/PDF_MC_model_relz_EPDF.pth (torch, 279970 bytes, 12 tensors)

input_layer.weight f4 [128, 5]
00000000: fee1 1a3f 3f68 36bf da6e 413f 49b7 893f
00000010: ff0a 8fbf 3709 14bd d911 b0bd cbea e0be
00000020: b121 2d3e 788d 26be 6028 d6be 8ec5 f4bc
00000030: 1cbc a5be ae85 76be 7f3c c8be c9e8 d3be
00000040: 584d 883e 5097 fd3d 80d9 c03e dc1a 08bd
00000050: 99b0 0e3e c9fe 6abd c95a cdbe bede cebe
00000060: c539 35bd 4643 2e3f 4ee1 71be ff34 413e
00000070: 9744 48bf 8e04 b6be e613 943f afb2 ecbf
00000080: a209 ad3d 219a 0f3e 0c49 eebd 5768 633f
00000090: 7ae0 51bf 3783 31bf e95c fbbe bfe3 bf3f
000000a0: 6cb7 243f be64 71bf 2bc3 873f c867 513e
000000b0: c084 313e cc4d a33e d8ab 8f3e 2db0 b9bd
000000c0: 239f ce3d e7f5 adbe f01b 4f3f 93ea e6be
000000d0: feb2 22c0 a9b3 803f 4bab 813f 8790 cfbe
000000e0: 78e4 81be 2844 9fbd a562 1d3e cd28 a7be
000000f0: 21e1 843e e131 8dbe 99a6 a13e 0bea dcbe
00000100: 040a bc3c 2863 0cbf d0aa 90be 7f5b 953e
00000110: 582b 993f ec67 b8bd 7ba2 e03e 6a6d 55bf
00000120: 0086 d13d 7294 4ebf 91e1 aa3e db1c aabe
00000130: 7bf1 883f bbdd a1bf 5fb5 263f 58f1 b9be
00000140: 80d7 1d3f 8f9f bb3e e9b0 10bf cb44 e33d
00000150: 2317 96be 8560 e73d c8a1 b8bc f348 36bc
00000160: 7b45 a6bd 6c21 34be 2eac 67bd a2e7 b5be
00000170: a2be 443e ad78 fcbd 6db6 983e 8627 5ebe
00000180: bd9b a7bd eded f9bd 4172 d13e 581d 9bbe
00000190: 9cb4 ff3d f3d5 91bc fe87 8fbd 3995 a4bc
000001a0: 5865 a43d 179e 18bf 6a9b b13e 5871 aa3f
000001b0: c404 c73f 5ab6 09c0 f0ca c3be b868 113c
000001c0: 2ea1 76be 5ed7 3bbe ac30 b13e 4993 233f
000001d0: ef69 bcbf a4af 7fbf 538a bf3f 2b29 aabe
000001e0: 6732 523e b73a 16bf 3757 8cbe b55a 0d3e
000001f0: 33e9 073e d381 4d3f 3aa0 f2bd c1c7 803d
00000200: a399 c4bd 8e22 453f 11b9 e0be 9713 b53d
00000210: 60da 353e 006e bfbd 204b f0bd c2b7 8ebe
00000220: 2b64 343e 9a53 debe 90b5 c4be f305 9b3e
00000230: 7f3a de3d 995b 9e3e d320 613e 1260 debe
00000240: c0b4 513d 6ed7 ebbd f55e 413f 8d62 63bf
00000250: 1e16 d9bf 4911 a43f 4801 c5bd 9be7 abbd
00000260: 8fed 0c3e 8ca3 a1be 8150 ba3d 772d 6d3f
00000270: 889f abbe 0ed7 d83e 1ad3 0ec0 22a9 293f
00000280: 9bcf 393f 3365 90bf cdbe febe c99e a13f
00000290: ddb9 2cbf d9f3 d7bd b5f3 35bf b6c8 813f
000002a0: 4457 a7bf 51a7 033f ef4a b1be fc0e 59be
000002b0: 916c 87bd 63b2 38be 0e18 86bd 2be6 14be
000002c0: 0bf2 c1be a364 92bd 2ee6 8f3e da6a cfbe
000002d0: 1e0e c43e 4864 3cbe 052d b7be d0a2 023e
000002e0: 0fab b7be 86b5 3dbe 819e b8be 1cd3 813e
000002f0: 3b0b 0ebe 4986 9e3c 4900 bf3e eb70 01bf
00000300: e580 bfbe 2981 c13f 97b1 28be e15a 3ebe
00000310: 0ce5 b0bf bb2d 8b3f 82ba b83f 83c1 bdbf
00000320: 6f73 2c3f 0e4d 553f 8dbd 2e3e 9dbc 823c
00000330: 9413 ee3d b4e2 1f3f 44fa 863d 778d be3e
00000340: e8a0 74be c29f 683f 762a 6d3f 045f 33bf
00000350: 39fc 7b3f c6d1 1cc0 868c 213f c799 8b3f
00000360: d4c4 a6be a47a 9a3e 6540 cabf 1fbc f2bc
00000370: a49c aabd 1191 c8be fe8f d0be 940d 9dbe
00000380: 9ffa 563e f881 c5bf 5355 623f 588e 72be
00000390: b39c b83f ea1c 1dbf 347c a2bd 4662 6b3e
000003a0: 3377 febd 0fa7 833e 2010 55be e019 76be
000003b0: d875 06bf 22fe 4e3f 73df a9bf a099 dc3d
000003c0: 9bcd a73d e5bc 9a3e dcd0 943e fcd3 2bbd
000003d0: 9ef7 c3be 1014 433d 7957 3fbe 71e7 263e
000003e0: 665e e9bd 96f2 b8bd 49e0 a1be 3222 3240
000003f0: 82dc 24c0 3bff 1cc0 9a3b fe3f ef91 34bf
0.60501087 -0.71252817 0.7555977 1.0759059 -1.1175231 -0.0361416 -0.08597154 -0.43929133
0.16907384 -0.16264904 -0.4182768 -0.029879358 -0.3237008 -0.24074432 -0.39108655 -0.41388538
0.2662151 0.12382376 0.3766594 -0.03322874 0.13934554 -0.05737189 -0.40108326 -0.40404314
-0.044244546 0.680714 -0.23621103 0.18867873 -0.7822966 -0.3555035 1.1568573 -1.849203
0.08449103 0.1402364 -0.11635026 0.88831085 -0.8198315 -0.6934084 -0.49094322 1.4991378
0.6434238 -0.94294345 1.0606436 0.20449746 0.17335796 0.31895292 0.28060794 -0.09066806
0.10088947 -0.3397667 0.80902004 -0.4510084 -2.5421748 1.0054828 1.01304 -0.40539953
-0.2536962 -0.07776672 0.15369661 -0.32648316 0.2595301 -0.27577117 0.31572416 -0.4314731
0.022953995 -0.548388 -0.2825532 0.29171368 1.1966352 -0.090041965 0.43873963 -0.8337008
0.102306366 -0.8069526 0.3337522 -0.3322514 1.0698694 -1.2645792 0.651205 -0.36316943
0.6165695 0.3664517 -0.56519943 0.110971056 -0.29314527 0.112977065 -0.02253808 -0.011125791
-0.08118721 -0.17590874 -0.056560688 -0.35528284 0.19213346 -0.123277046 0.2982668 -0.21694764
-0.081840016 -0.12203584 0.4090748 -0.30295825 0.124856204 -0.017802214 -0.0700836 -0.020090686
0.08027142 -0.59616226 0.34688884 1.331584 1.5548329 -2.1517549 -0.38240767 0.008875065
-0.24084923 -0.18343875 0.34607446 0.63896614 -1.4719828 -0.9987738 1.4964088 -0.33234534
0.2052704 -0.5868334 -0.2741029 0.13804133 0.13272552 0.8027622 -0.11846967 0.062881
-0.095996164 0.7700585 -0.43891194 0.08841627 0.17759085 -0.09347153 -0.11733079 -0.2787457
0.17616336 -0.43423158 -0.3841977 0.30277976 0.10851001 0.30929258 0.21985178 -0.4343267
0.051197767 -0.11515699 0.7553552 -0.8882225 -1.6959875 1.2817775 -0.09619385 -0.083937846
0.13762496 -0.3157009 0.09097386 0.926475 -0.3352015 0.42351574 -2.2316346 0.662737
0.72582406 -1.1280884 -0.49754944 1.2626582 -0.67471105 -0.10544557 -0.7107499 1.0139377
-1.3073506 0.5142718 -0.34627482 -0.21197122 -0.06612504 -0.18036799 -0.06547557 -0.14540927
-0.37879977 -0.07148101 0.281053 -0.4051121 0.3829202 -0.1839763 -0.35776535 0.1275742
-0.35872695 -0.18526277 -0.3605843 0.25356376 -0.13871472 0.019351142 0.37304905 -0.50562924
-0.37403026 1.5117542 -0.16473995 -0.18589355 -1.38199 1.0873331 1.4431918 -1.482468
0.6736364 0.833207 0.17064495 0.015959078 0.11624828 0.62455297 0.06590703 0.37217304
-0.23889506 0.9086877 0.92642915 -0.7006686 0.98431736 -2.4503036 0.63105047 1.0906304
-0.32572043 0.30171692 -1.5800902 -0.029630719 -0.08330658 -0.39173177 -0.40734857 -0.30674422
0.20994042 -1.5430288 0.88411444 -0.23687112 1.4422821 -0.61372244 -0.07933846 0.22986707
-0.12425079 0.25713393 -0.20806932 -0.24033308 -0.52523565 0.80856526 -1.3271316 0.10771489
0.08193513 0.3022224 0.29065597 -0.04195021 -0.38274854 0.047626555 -0.18685712 0.16299225
-0.11394958 -0.090306446 -0.31616428 2.783337 -2.5759587 -2.453078 1.9861939 -0.70535177

input_layer.bias f4 [128]
00000000: 855b 76be ad88 e2bd f0bf 47be aca5 d5be
00000010: 28c2 1f3e 5e8b cc3e b549 c53e 6e79 77bd
00000020: caa6 0fbf 18c9 4cbe 8abd 643e 6a23 cebe
00000030: 91eb 30bd 7097 52be af93 0b3f 8853 5e3e
00000040: 7e29 d6bd 03ae 83bd e090 abbe 8dab 21be
00000050: 8fc0 58be 51a8 1dbe 9af2 93bd 831e 083f
00000060: a59f 733e 589f 31bf af17 adbe ff82 b3bc
00000070: 87c2 a3be 20ce 0a3f 738b c9bd 0721 f63e
00000080: 7a47 5e3e 1520 e23e 4823 ed3d ab91 5ebe
00000090: 7412 32be 4f62 e8bd 5f7b c0be 23a7 ba3e
000000a0: 5e7a a5bf 0b80 69bf a96b 003f 9262 f93e
000000b0: bd29 1cbe 946b 0b3e 580d 26be bd44 473f
000000c0: b95c b5be 28c2 c9be d64b 273f 34e1 1f3f
000000d0: 4d80 3abd 6def b03d 7821 7f3e 0421 263f
000000e0: 751c d03e a5e2 163f 649f c83e 4456 99be
000000f0: d691 f23d f3c9 42be 78f6 a7be deff adbc
00000100: 0952 bf3e d35c c73e 5567 183f f573 d1bd
00000110: 8af2 a8bd 909d e4bb cab2 fa3e 9748 6a3e
00000120: 956b f43e 790c ddbe acd6 1e3f 374c 68be
00000130: 785c 7b3e da38 89bd 7c6c 70bd b8bb bbbe
00000140: fb53 8fbd 67a6 913e 422c a23d 2c63 3dbe
00000150: 5734 7b3d d038 b33d a36f 4cbf c789 abbf
00000160: 5286 d0be 9ffd 8a3e 7068 3f3d ecfc 213f
00000170: f35c 7b3d 1596 ddbd 9ead 64be 2117 cfbd
00000180: 3c3b 59bc 3daf 5dbd f17a 88be 91f8 0e3f
00000190: 3016 093f b51c 423f 26e1 973e b921 11bd
000001a0: 593d f83e d523 383d 51f2 b2be eea4 c53e
000001b0: 9761 5dbd 6535 013f 8638 b4be 8b86 a3bf
000001c0: a157 9f3e f099 923e 0f20 65be 11e7 893e
000001d0: 1c9c 68be ddff ff3e be20 5c3e e812 823f
000001e0: efe4 8abe 2f6d 46bd f55e ccbd d044 e83c
000001f0: e3a2 8e3e cb3e 56be 7454 883e e443 48be
-0.2405835 -0.11061225 -0.19506812 -0.4172796 0.15601408 0.3995008 0.38532797 -0.06041854
-0.56113875 -0.19998586 0.22337928 -0.40261394 -0.043193404 -0.20565581 0.5452222 0.21711552
-0.10457133 -0.064296745 -0.33508968 -0.15788098 -0.21167205 -0.15396239 -0.07224007 0.5317156
0.23791368 -0.69383764 -0.33807132 -0.02191305 -0.3198435 0.5422077 -0.09841051 0.48072073
0.21706954 0.44165102 0.11578995 -0.21735255 -0.17389852 -0.11346876 -0.37594125 0.3645564
-1.2927969 -0.91211003 0.50164276 0.48708016 -0.15250297 0.13615257 -0.16216028 0.7783926
-0.35422304 -0.39405942 0.6535009 0.6245301 -0.045532513 0.08639417 0.24915111 0.6489413
0.4064671 0.5893958 0.39184105 -0.29948628 0.11844222 -0.1902235 -0.32805228 -0.021240171
0.37367275 0.38938007 0.5953267 -0.10227195 -0.08249386 -0.0069767907 0.4896453 0.22879253
0.4773833 -0.43173578 0.62046313 -0.22685324 0.24546993 -0.06700297 -0.05869721 -0.36666656
-0.0699844 0.28447267 0.07918598 -0.18494862 0.061329212 0.087510705 -0.79857844 -1.3401421
-0.40727478 0.27146623 0.04673046 0.63276553 0.06136794 -0.108196415 -0.22331855 -0.10111833
-0.0132587515 -0.0541222 -0.26656297 0.5584803 0.5354948 0.75825053 0.29663962 -0.03543255
0.48484305 0.044956047 -0.34950498 0.38602394 -0.054048147 0.504721 -0.35199374 -1.2775434
0.31121543 0.2863307 -0.2237551 0.26934102 -0.22715801 0.49999896 0.21496865 1.016202
-0.27127787 -0.04844397 -0.09979049 0.028353125 0.27858648 -0.20922391 0.26626933 -0.19557148

hidden_layers.0.weight f4 [128, 128]
00000000: 2deb 93bd 87b1 9b3d 2553 cb3c f143 b63c
00000010: a68b 4e3d d4f0 eebb a871 b93c 7d7b 273c
00000020: be88 4fbe cf2a acbd 47f8 cd3d 010c 49bb
00000030: c587 093d 0333 8f3d f6bd 5dbc ee14 533d
00000040: 8719 0dbd 85a2 533c 4b23 833d 9416 21bd
00000050: 6f5f 4bbc 62a8 0bbe 7023 083c 8552 253e
00000060: 0abd 1c3b e93b 2ebe 5406 6cbd c231 d3bc
00000070: 4a90 c4bc d845 1e3a 8082 083d 7a98 a8bd
00000080: 95a8 523d 821a 853c 3e08 d33b c77e fb3b
00000090: 0078 543d a2d6 b03d 456b 7ebd 0ac8 823d
000000a0: d9b0 e13c cef8 36be 4413 70bd 4531 e8bc
000000b0: 15b8 98bd de47 143b 3ca1 1dbd 9afd cebd
000000c0: 0481 2ebc c9f2 9bbd c362 8d3d 7a9f 89bc
000000d0: 82c7 f53b 12c0 073d aa6d 16be e08b f73d
000000e0: 21f9 de3d 06fb 32be 995d 8a3b 57a8 853d
000000f0: fe13 493e 3797 453d 9e43 e7bc 741f 9abd
00000100: 4b0a 403d 78f7 c9bc 6436 f3bd 323f bebd
00000110: e653 1d3d 6a6c d43b 7b21 a83d 8b00 5e3d
00000120: 3bd9 e73d 8f9e 843d 1a87 353e fc1c 453d
00000130: c60e b8bd 6f7c a63d d465 943d 6bc7 a6bd
00000140: dd86 fdbc dfaf b8bd 4374 91bd 288c d23d
00000150: 5d1c 3b3d 2e13 cf3c 8145 1abe ae17 2a3b
00000160: d4b1 f63a 2832 1b3e 16b6 1f3d 2331 803e
00000170: 77b0 f8bc a30f 9d3d 63c9 61be 1a99 e13c
00000180: 1dca 453d 7e0e b03d b276 84be 3b2d 623d
00000190: 4fbc a03d b1a2 b9bd 16d7 b43d bc0d c83c
000001a0: 4fe7 183e 6ed9 f53c 9072 b33c afdf 3ebd
000001b0: 07a5 d53c 7bba c43d c4f4 823d 6c0b 4c3d
000001c0: 75ee 7e3d d4b3 063d 19e0 22bd e2d1 34bd
000001d0: 3ce7 3b3b 6ec9 52bd 6402 2fbe a960 853d
000001e0: ab54 97bd ad9c b8bc 1b83 debc 7320 273d
000001f0: f786 5abe b037 b2bd 9559 67bc 7163 103e
00000200: 5459 e5bb d902 83bd 7aa9 453d 181b 833d
00000210: 5eac e53c 8dc9 b3bd a7bb a9bd 937e d3bc
00000220: 2123 36bd 3604 d2bd 96c8 79bd 699a 10bc
00000230: c142 073d 299f 523d 4edc 44bc 6ca8 4dbc
00000240: 67a0 cfbd 713e 8c3d da6c 0fbd 2a86 ad3d
00000250: 2ff5 88bb 0da4 c2bd 9a39 a93b be9d abbd
00000260: 2bc6 60bc 862c aabd f197 a43d ee3f adbd
00000270: 87da 443d f34e 23bd d8a9 6f3d 6aa9 c0bd
00000280: 2ad6 c7bd f34b 50bd a6ec a3bd 72bf 403d
00000290: 05cc 703c 0e72 0f3d 954d 65bd 5b40 6a3c
000002a0: a75a c3bd 3b53 953d ce77 3dbd 2cd6 4cbd
000002b0: 7a6a 813d 472c 173d 61e7 93bc 31ae 983c
000002c0: b4ce 6a3d d3cf e7bc 163d 743c b83f 963d
000002d0: d573 1abd afa4 4ebd 1557 693d c676 0dbc
000002e0: 24b7 71bd 40bc 5fbc 53e3 85bd cb29 79bd
000002f0: 696e b33d 654c 86bc 00b3 3f3d 6f08 3bbc
00000300: dfc3 8ebd 049a 2c3d 3f2b aebd d95b b7bd
00000310: be3b 973d 5666 323d 7697 d9bd 9e1a 7e3d
00000320: e8ce 52bd ea0c 9abc 2efb a6bd c71d 8dbc
00000330: 9dc5 053d 5891 c8bc 8092 513c 73b2 6dbd
00000340: 4cb4 2ebd cf08 1a3d b6c5 dcba 3f7a 013b
00000350: 1810 133d 3817 cabc 3ab6 443d d024 0abe
00000360: 55a0 7fbd 3e41 023d b037 82bd c987 9fbd
00000370: 115e 043d 57c8 963d 55bc bf3d 06bd 90bd
00000380: e091 22bd df6c 1cbd 8780 85bc 87fe 83bd
00000390: ebca 85bc 15a2 263e 0fc5 99bb ac4a 8d3d
000003a0: 31dd d93a d268 863d c097 223d 3c50 2c3d
000003b0: aa1b 8f3c 5174 493d 9089 51bc 49b1 65bd
000003c0: 0e03 e93c 85e3 9bbd f082 223d 9c93 983d
000003d0: 16bf 92bd fb7c ef3d e46f 583c ef58 5a3d
000003e0: a20d adbc 2db1 13bc b973 283d 692e 7ebd
000003f0: 479e 2ebd 6730 a23c f211 2bbd b249 523d
-0.072225906 0.0760222 0.02481992 0.022249194 0.050426148 -0.0072918925 0.022637203 0.010222313
-0.20267007 -0.084066026 0.10057121 -0.003067732 0.033576746 0.069921516 -0.01353406 0.051533632
-0.034448173 0.012917166 0.06403216 -0.039328173 -0.01241289 -0.13638452 0.00830923 0.1614476
0.0023916387 -0.17015041 -0.057623222 -0.025780562 -0.023994584 0.0006037629 0.03332758 -0.082322076
0.051430304 0.016247991 0.0064401915 0.007675025 0.051872253 0.08634688 -0.06211402 0.06385811
0.027550148 -0.17868349 -0.058612123 -0.028343806 -0.07456986 0.0022625844 -0.038483843 -0.101069644
-0.010650877 -0.07614667 0.06903603 -0.016799677 0.00750059 0.033142157 -0.14690271 0.12087226
0.10887361 -0.1747857 0.0042225835 0.06526249 0.19636533 0.048239913 -0.028230485 -0.075255305
0.046884816 -0.024654135 -0.118756086 -0.09289397 0.03841009 0.0064826505 0.08209511 0.054199737
0.1132073 0.06475555 0.17727318 0.048123345 -0.08987193 0.081292026 0.07245985 -0.08143505
-0.030948097 -0.0901792 -0.07102253 0.10280639 0.045681346 0.0252777 -0.15065576 0.0025954056
0.0018821307 0.15155852 0.03899201 0.25037488 -0.030357582 0.07668998 -0.22049479 0.027538825
0.048288453 0.08596514 -0.25871807 0.055218916 0.07848417 -0.09064234 0.08830087 0.024420612
0.14931987 0.030010905 0.021905214 -0.04660004 0.026079668 0.09605881 0.063943416 0.04981558
0.06223913 0.03288634 -0.039764497 -0.044145472 0.0028671762 -0.05146163 -0.17090756 0.06512577
-0.07389196 -0.022535646 -0.027162125 0.04080243 -0.21340548 -0.08702028 -0.014120479 0.14100434
-0.006999174 -0.063970275 0.04825733 0.06401652 0.028036293 -0.08778677 -0.08287745 -0.025817191
-0.044467095 -0.102547094 -0.06098231 -0.008825877 0.033022646 0.05142132 -0.012015415 -0.012552362
-0.10138016 0.06847847 -0.03501592 0.084728554 -0.004179619 -0.095039465 0.0051643373 -0.08379696
-0.013719122 -0.083092734 0.08036793 -0.08459459 0.048059966 -0.039870214 0.058511585 -0.09407313
-0.097576454 -0.05085368 -0.080041215 0.047057576 0.01469708 0.03502088 -0.05598219 0.01429757
-0.09538775 0.072912656 -0.046256833 -0.050008938 0.06319137 0.03690746 -0.018054666 0.018637748
0.057326034 -0.02829734 0.014907142 0.07336372 -0.037708122 -0.050450023 0.056967814 -0.008634275
-0.059012547 -0.013655722 -0.06537499 -0.060830873 0.087612934 -0.01639385 0.046801567 -0.011415585
-0.06970953 0.04213907 -0.08504342 -0.089530654 0.07384442 0.043554626 -0.10624592 0.062037103
-0.051466852 -0.018804986 -0.081533775 -0.017226113 0.03265916 -0.024483368 0.012791276 -0.05803151
-0.042652413 0.037606057 -0.001684359 0.0019756702 0.03590402 -0.024669275 0.048025347 -0.13490605
-0.062408764 0.0318005 -0.06358278 -0.07789571 0.03231627 0.073624305 0.09362093 -0.07067303
-0.0396899 -0.038189765 -0.016296638 -0.064450316 -0.01633211 0.16272767 -0.0046926807 0.06899008
0.0016621706 0.06562962 0.0396955 0.042068705 0.017469246 0.049183194 -0.012789145 -0.056077275
0.02844384 -0.07611755 0.039675653 0.07450029 -0.07165353 0.1169376 0.013210271 0.05330747
-0.021124665 -0.00901441 0.041125987 -0.06205598 -0.042631414 0.01979847 -0.04176516 0.051339813

hidden_layers.0.bias f4 [128]
00000000: 8455 a43e 4473 5e3e abc1 1cbe 2acc d9be
00000010: 6910 5b3d 40c1 21bd 4366 333d cbe8 b53e
00000020: 3284 e2bc 5e28 c7bc 94ab 08bd 5fe2 b1bd
00000030: 68a7 913d b5c0 91bc d2d8 d73d dcaa bcbd
00000040: 8e56 8ebe bb05 0ebd 9c45 9bbd 2290 2b3c
00000050: 6d31 bc3d ec33 90bd 76a1 4fbe cbb4 ecbd
00000060: 0f95 5e3b d37f d8be 8138 55bd ee8d 6ebd
00000070: ae03 68bc 3d71 f23d 62bf b53e 4fac a5bd
00000080: eefe f1be 15ed 23bd 9911 82bd 336c 7abc
00000090: 395b 0fbd f829 e3bd 5f39 893e e30a e6bd
000000a0: 2a2f f23d d221 2d3d c632 1ebd 4a24 15be
000000b0: e441 353e 4997 05be 371f 0a3e 1c78 d9bc
000000c0: 4b39 9f3d af68 d4bd 347d f0bc 03c0 7f3e
000000d0: dc45 10bd 9346 c2bd 61d4 ae3d 8bfe 9a3d
000000e0: e388 e33c ed9d f83c f72a 3fbc 54e3 5c3a
000000f0: 1c54 dcbd 26c3 19be 55ec 13be 4810 edbd
00000100: 1221 18bd 7b9f c73d 730f e53e f34b c43d
00000110: e719 c8bb 11bc 893d 1285 c3bd 87a6 95bd
00000120: 85e8 98bc e7ac ab3c 8926 2dbe a5a9 343e
00000130: 0876 30be b396 a8bd 9b28 c83c 08a1 d83d
00000140: 09a0 a7bd 6310 67bc b978 21be 1f5a 9b3e
00000150: a29e e53d 5c30 0bbe 7af8 763c 3120 a7bd
00000160: 225b 99be 0918 86bd aad1 5c3e 9583 9cbd
00000170: 360b 74bc f11e aa3d 2a4d 61bc 9c36 0c3e
00000180: e30e a03d 6ccf 35bd d898 4ebe 57c9 033e
00000190: d609 5f3e dcf0 18bd aa61 143e 2d66 b7bd
000001a0: 8f43 a13d ebd8 e83d 3c74 1abe 3a43 a13d
000001b0: 15f9 95bd 0302 b63d e04a 5f3c ea74 51bd
000001c0: 97d6 04be d96b 013e 3e6e 57bd fe3e a13d
000001d0: 1a6c 7a3e c5d9 5dbd 35a8 0ebe 37ab dbbc
000001e0: a71a 61be 7b82 bbbd cf7a 99bd c8ad 2b3c
000001f0: 65bb 5dbd 4030 583d bdb2 48bd f974 c5bd
0.32096493 0.21723658 -0.15308253 -0.42538577 0.053482447 -0.03949094 0.043798696 0.3552917
-0.027650926 -0.02431124 -0.033366755 -0.08685755 0.07112008 -0.017792085 0.10539402 -0.09212276
-0.2780041 -0.034673434 -0.07581636 0.010471376 0.09189115 -0.07041153 -0.20276436 -0.11557921
0.0033963358 -0.42285022 -0.05205584 -0.058240823 -0.014161034 0.11838005 0.35497576 -0.08089506
-0.47264808 -0.04002102 -0.06351013 -0.015284586 -0.034999106 -0.11091989 0.26801583 -0.11232545
0.11825402 0.04226858 -0.03862264 -0.14564624 0.17700917 -0.13045992 0.1348847 -0.02654653
0.077746 -0.10371529 -0.029356577 0.2497559 -0.035222873 -0.09486117 0.08536602 0.075680815
0.027775234 0.030348742 -0.011667958 0.00084262085 -0.1075823 -0.1501585 -0.14445622 -0.11575371
-0.037140913 0.09747215 0.4473835 0.09584799 -0.0061066034 0.06725324 -0.095468655 -0.07307153
-0.018665561 0.02095647 -0.16909231 0.17642839 -0.17232525 -0.082318686 0.024433425 0.10577589
-0.08184821 -0.014103028 -0.15768708 0.30342194 0.112118974 -0.13592666 0.01507389 -0.08160437
-0.2995234 -0.06547553 0.21564355 -0.07642285 -0.014895251 0.08306683 -0.0137513075 0.13692707
0.078153394 -0.044387266 -0.20175493 0.12869774 0.21781096 -0.037339076 0.14490381 -0.08955035
0.07874214 0.11369499 -0.15083402 0.078741506 -0.07322899 0.088871025 0.013628691 -0.05113689
-0.12972485 0.12638797 -0.05259537 0.07873343 0.244553 -0.05416276 -0.13931353 -0.02681504
-0.21982823 -0.091557465 -0.07494127 0.010478444 -0.05413379 0.05278039 -0.048998583 -0.096414514

hidden_layers.1.weight f4 [128, 128]
00000000: 678f a8bd 107a ab3b f50b 7c3d 2d72 e33c
00000010: 2b15 f53c cff8 2dbd ef13 39bd eb67 dd3d
00000020: cb59 cfbd 1cd8 a9bd 1dd5 383d 481e 89bb
00000030: 383c 7dbd 63f7 86bb a17d 613d c069 d13b
00000040: 44d7 e53d c280 243d 164e 70bc 0397 e0bc
00000050: d98c 493d d47c 21bd 44d7 c73d 4bc9 203d
00000060: ba8f 3fbd 6067 69bb 99a4 c83c f0dd b53d
00000070: 4002 a5bc 3ce4 183d e43f ad3c a9b6 e73b
00000080: d513 673d 642f 86bd 6162 863d 27c0 913b
00000090: ca71 a8bd 173b ee3c 6b7f a63c 8a67 0dbd
000000a0: c4df b23d 9674 0fbd 3283 a2bd 1a0e f03c
000000b0: bce4 e2bd 6bc7 3c3d 7790 6a3d 515a ea3c
000000c0: 5b2b 1e3c 854a b93d 778a 003b 2a71 c43d
000000d0: 2372 773c 047f 28bd dd07 5e3d 7f39 963d
000000e0: 4cff 04bd ddac ccbc 7a68 6bbd 4f5b 0cbd
000000f0: a1aa 86bd 1874 a1bd 01c6 bfbd eaea 323d
00000100: b00b a83c 1bbd c8bc 7bb7 813d 7271 60bd
00000110: d70b a63c 0137 74bc f7b9 5ebd 54b2 c73c
00000120: e32f b63c 9501 d23d d13b 3bbb 82c8 883d
00000130: 8fc0 323a d5f9 a53b dc84 44bc b93c 933d
00000140: acbe 8d3c fdf9 88bc 9354 d63c 6419 81bd
00000150: eb56 96bd b0ec ca3d a810 cbbb da04 7f3d
00000160: 9dc8 8b3d 530e afbc 0bd4 a63d 9563 a83d
00000170: 0f4e 9bbc 1705 513d f231 aa3d 5c6c 03bd
00000180: 6e24 cd3d ca94 73bc 383b b43b 31c5 bc3d
00000190: 7b1b 65bd b834 29bd b7a8 d83c 9012 493d
000001a0: c492 cebb 4d23 febd c031 8dbd 11dd 673d
000001b0: 7694 80bd 8f24 1b3d ec9d 1fbd 7f47 7a3d
000001c0: a8c0 23bd 369d b0bd ec30 cd3b 072a cdbd
000001d0: 838c e83c 19a7 a43d 70c2 9a3c 8539 99bd
000001e0: b3da 313d 99d8 9c3d 3f7c 4d3d 9ee5 00bc
000001f0: bf2f 1d3d 4186 9fbd 4e16 d13c a5f9 1b3d
00000200: 0401 693e e85b a03c 64f5 29bc f5ac f4bd
00000210: b910 9abd 3e0d 393d c588 aebd 4724 113e
00000220: feb7 4cbb 5d7e 803d 0d6f b8bd 5b12 9bbd
00000230: d6f1 03be ab9f 42be b712 f5b9 9478 0abe
00000240: 7bc1 a7bd 082d b6bd 8511 73bc 2ba7 093d
00000250: 0177 6f3d 00b3 6f3d a9b9 163d 34a5 e1bd
00000260: 4f3a 46bd 3b24 84be 448e 37bc 785e e0bc
00000270: e082 583c 802e e2bd e918 283e ef8e a03d
00000280: 5aba e1bd e055 573d 530b 8e3d b88e 6cbd
00000290: f10b 023d 8e9a a1bd 3a50 96bd 9e98 8f3d
000002a0: 0fc9 ed3c 16d0 4bbe f099 8ebd ebbb 0bbd
000002b0: 384f 543e d4cb a33c 5d59 193e 0f52 22bd
000002c0: dacf 38be 69aa 57bd 0578 9d3d 56e9 d7bd
000002d0: 50ae c5bc 5171 d8bd f9a8 1d3d 57b7 04bd
000002e0: ec99 2a38 84de 31bd 9eef aebc ecc1 873d
000002f0: d04c f53d 795b 533e 7fed 063e 4510 543d
00000300: 9e4f 6e3d aa28 d23d a302 7fbd 0a44 523e
00000310: 6736 683e d865 0a3e 56d4 1dbd 9a02 f6bc
00000320: 693e 903e 6cfb ec3c 62cc c2bd 9ffa a5bb
00000330: 438c ad3d d0f4 a83d e1be 623d e9b2 283d
00000340: ee36 debc 0282 3c39 fd59 2e3e 6fcd 86bd
00000350: 93fc b5bd c701 d0bd 27b8 9b3d 39fa 69bd
00000360: c409 183e 9ed7 313d bfed e03d c132 533c
00000370: 974b 92bd 1be2 19bb 8cb6 53bd bc23 d23c
00000380: 1d53 a23d f7eb 503d fb46 773e 2245 903d
00000390: 6ab0 743d 47fb 453c 558b debc 755b 36bd
000003a0: 7de9 71bc be1e 26be eccd 1d3d 17a5 823c
000003b0: 2f46 f2bb 0e7a 173d 57f7 3abd ce2e 493b
000003c0: f7ee 9dbd bebb c73d 99d9 21bc e737 a0bb
000003d0: 3b33 53bd d3f2 943c b9d4 f53d 414a 7d3e
000003e0: 922d b63d 0d48 12be f4b7 a33c bbbb 5abe
000003f0: f4a9 49bd 6a4a 5abc d17b 333e 47a4 093d
-0.08230477 0.005233057 0.06153484 0.027764404 0.02991732 -0.04247361 -0.045185026 0.108108364
-0.101245485 -0.08293173 0.045125116 -0.004184518 -0.061825007 -0.0041188463 0.05505145 0.00639078
0.11222699 0.040161856 -0.014667055 -0.027415758 0.04920659 -0.039425686 0.097578555 0.039254468
-0.046767928 -0.0035614595 0.024492549 0.08880222 -0.020142674 0.037327036 0.02114863 0.0070713353
0.056415398 -0.06552008 0.06561733 0.004447955 -0.082248285 0.02908091 0.02032443 -0.03452257
0.08734086 -0.035023294 -0.0793518 0.0293036 -0.11078784 0.046088617 0.05726668 0.02860752
0.009653891 0.090474166 0.0019613781 0.09591897 0.015102896 -0.041136757 0.054206718 0.07335185
-0.032470033 -0.024984771 -0.057472683 -0.034266766 -0.06575514 -0.07883471 -0.09363938 0.043681063
0.020513386 -0.024504235 0.06333824 -0.05479569 0.020269318 -0.014905692 -0.05437657 0.024377026
0.022239631 0.10254208 -0.002856959 0.06678869 0.00068188546 0.0050651827 -0.011994567 0.07189316
0.017302833 -0.016720766 0.026163375 -0.06303671 -0.07340797 0.09908426 -0.006197054 0.062260486
0.06825373 -0.021369135 0.08145913 0.08222119 -0.01895812 0.051030245 0.083103076 -0.03208576
0.10016714 -0.014867017 0.0055002235 0.09217299 -0.05593441 -0.041310042 0.026447637 0.04908997
-0.006304117 -0.12409077 -0.06894255 0.05660731 -0.06278317 0.037876662 -0.038968965 0.06110334
-0.039978653 -0.086237356 0.0062619355 -0.10017782 0.028387314 0.08039684 0.018891543 -0.07481674
0.04342146 0.076585 0.05016732 -0.007867245 0.038375612 -0.07789279 0.025523331 0.038079876
0.22754294 0.019575074 -0.010373447 -0.119470514 -0.07522721 0.045178644 -0.085221805 0.14173995
-0.0031237598 0.06274102 -0.09005556 -0.075718604 -0.12885222 -0.19006221 -0.00046743985 -0.1352256
-0.081912 -0.08895308 -0.01483572 0.03360669 0.0584631 0.058520317 0.036798153 -0.11017838
-0.04839545 -0.25808892 -0.011203352 -0.027388796 0.013214797 -0.110440254 0.16415752 0.078397624
-0.11021872 0.05257213 0.06935754 -0.057753295 0.03174967 -0.07890807 -0.07339521 0.07011531
0.029026536 -0.19903597 -0.06962955 -0.03411476 0.20733345 0.019994654 0.14975496 -0.03962904
-0.18048039 -0.05265275 0.076889075 -0.10542552 -0.02413097 -0.105684884 0.038491223 -0.03240141
4.067451e-05 -0.043425098 -0.021354493 0.066287845 0.119775414 0.20640363 0.13176535 0.05177333
0.058181398 0.10261662 -0.062258374 0.20533767 0.22677003 0.13515413 -0.038532577 -0.030030537
0.28172615 0.028928481 -0.09511639 -0.0050652768 0.084740184 0.08249819 0.055357818 0.041186247
-0.027125802 0.00017977509 0.17026515 -0.06582152 -0.08886065 -0.10156589 0.07603484 -0.057123397
0.14847475 0.04341852 0.109828465 0.012890519 -0.07143324 -0.0023480717 -0.051687762 0.025651805
0.07926009 0.051006284 0.2414817 0.07044436 0.059738554 0.012083835 -0.027166048 -0.044520814
-0.014765141 -0.16222665 0.03852646 0.015947862 -0.0073936204 0.036981635 -0.045646038 0.0030698064
-0.077115946 0.09752606 -0.0098785395 -0.0048894766 -0.05156253 0.018182194 0.12003464 0.24735357
0.088954106 -0.14285298 0.019985177 -0.21360676 -0.049234346 -0.013323406 0.17527701 0.033603933

hidden_layers.1.bias f4 [128]
00000000: a0d2 073d 38ef a23d baf9 103e 52ce d63d
00000010: 4105 8dbd e53a d53c ad6b 8cbd 8f24 9c3d
00000020: 23df 813c 58fd 9dbd da9c 683e f487 163e
00000030: 7aae 923d 0823 95bd 36d9 d23d acfe c83d
00000040: f8dc 67bd a7f3 c5bc fc33 85bc e90a 7c3e
00000050: a2b6 af3d 7873 7e3e a5e4 e43b fc32 6f3d
00000060: cce3 a63c 7bd6 833d dbc9 1a3e 5aa8 87bd
00000070: ef9f 713e f667 93bd 9db1 263e 5f29 c63d
00000080: f491 393c 8a50 7fbd 546c 293d 79de 62bd
00000090: ffc2 533d b6fb fd3d 32c2 f0bd c81d ebbd
000000a0: e116 393e 6a82 d0bd 7f52 0a3d 92bd dbbd
000000b0: def0 443c bcc0 d2bd 7d80 943e 5508 de3d
000000c0: 884c 863e ff55 c1bd 6f2c 063d 25af c2bc
000000d0: 3e07 a8bd 5443 493d 0636 af3d 20f5 5dbd
000000e0: fd9e 403e f306 9a3d 5677 093e f1dd 8db8
000000f0: 2a4f f23d 1fad 43be 8e4b 883c fe7e 5f3e
00000100: d028 103d 5e39 bb3d bd27 4fbe 9e02 adbd
00000110: 474f 50bd 4c0b 96bd a5a0 67bd d00c a13d
00000120: 7b77 063d 4ffb 37bd d316 043d 87eb e9bd
00000130: bd78 80bd b6d2 2e3e 589c 9c3d 2604 4f3e
00000140: 8dd6 243d 2ccb 243e 546c 3bbb b242 ab3d
00000150: 579e 0b3e 6613 1d3e 6838 bbbc 7d4b 863e
00000160: 16f9 7cbe f4b8 a5bd 62c0 adbd 84c8 013e
00000170: 7927 1dbe 781b 2cbd 5f82 36bd 6dcb 573e
00000180: 4821 9f3e 1241 21bc 42ba 2f3d 60a1 7f3e
00000190: a88b eebd 3209 c0bd c5a1 16bd c221 dfbc
000001a0: 6a63 793d d860 19bd 2c3c 0b3e fde4 0d3e
000001b0: a788 a63d 8d2e aabd 414c b73e 10d2 22be
000001c0: 4316 b43d b5ce d03c 65aa 4d3d 3291 883d
000001d0: efd5 b53d 1133 6b3d 5367 fbbc d0b5 b53d
000001e0: 0b96 093c 50c7 2ebd 3158 483e da3e 29be
000001f0: 3b49 01be 8ca9 9bbc dedc 493d ccc4 153e
0.033159852 0.079557836 0.14157763 0.10488571 -0.06885768 0.02602906 -0.06856475 0.076241605
0.01585347 -0.07714337 0.22716084 0.147003 0.07162185 -0.07282072 0.10295336 0.098142
-0.056607217 -0.024164034 -0.01626014 0.24613537 0.08579756 0.24848735 0.0069852644 0.058398232
0.020372294 0.06437393 0.15116064 -0.066239074 0.23596166 -0.07197563 0.16278692 0.0967586
0.011326302 -0.062332667 0.041363075 -0.055387948 0.051699635 0.12401526 -0.1175579 -0.1148029
0.18075134 -0.101811245 0.03377008 -0.10729517 0.012020318 -0.102906674 0.2900428 0.10841433
0.26230264 -0.094402306 0.03275722 -0.023765156 -0.08204506 0.049136475 0.08555226 -0.054188848
0.18810649 0.07520857 0.1342443 -6.764744e-05 0.118315056 -0.19109009 0.01663759 0.21825787
0.03519517 0.09141801 -0.20230003 -0.08447765 -0.050856855 -0.073263735 -0.056549687 0.07863772
0.03282879 -0.0449174 0.03224833 -0.114218764 -0.06273029 0.17072567 0.07647008 0.20216426
0.040243674 0.16093129 -0.0028598504 0.083623305 0.1363462 0.15339431 -0.022854045 0.26229468
-0.24704394 -0.08091918 -0.0848396 0.12674147 -0.15347089 -0.042018384 -0.044557925 0.21073695
0.3108008 -0.009842174 0.04290224 0.24963903 -0.11647731 -0.09376754 -0.03677537 -0.027237777
0.060885824 -0.037445873 0.13597172 0.13856883 0.08131533 -0.0830966 0.35800365 -0.15900445
0.087933086 0.02548919 0.05021133 0.06668319 0.08878695 0.057421748 -0.030688917 0.088725686
0.008397589 -0.042670548 0.19564892 -0.16527882 -0.12625591 -0.019001745 0.0492829 0.14625853

hidden_layers.2.weight f4 [128, 128]
00000000: 28dd a0bd 2612 e63d 58a0 3a3d b8be a0bd
00000010: 442e 38bc 76ea cbbd 5dbf 8fbd 27bd f43d
00000020: fdbd 9d3b 06aa eabc df11 f7bc 1d12 86bd
00000030: 96ad a43d bd90 d23c 0a92 9dbd c9b4 1a3c
00000040: 770f 353c 7227 98bd 7849 90bd c133 023e
00000050: 28fb 533c 0372 08be 9da9 83bd 4421 12bd
00000060: 36a3 35bd c50a 7a39 ffde 623c b1ee 843d
00000070: 6d01 503e 93d6 1a3d 2c67 48bd 8cbe 5dbd
00000080: b60d f93c 9ad0 4f3c 56d4 1fbb 748e da3c
00000090: f131 00bd a6be 2cbd 996b 45bd f023 273d
000000a0: 7b8f b43d 2a1f 72bd 8f2f b8bd e31b b73d
000000b0: b69f 483d dc2a b2bd a39e 50bd 1e19 c2bc
000000c0: 3497 08bd f344 c1bd 8830 723d 7252 47bc
000000d0: c3d9 913d f1d5 003e d842 a5bd 2390 87bd
000000e0: 8977 2cbd ad2a af3c de84 c63d 453f 603c
000000f0: f67b da3d e5f9 323e ae42 823c fad0 2d3d
00000100: 5566 de3c 5ace 8c3d fd0f 0f3d 9e52 053d
00000110: 9fd7 033b 193a f0bc e62e 90bd b645 753d
00000120: 746a bebd 38da 4f3d 8902 dd3d dcf6 84bd
00000130: a768 c33d c699 c23c bd51 b83c fe84 a23d
00000140: 8a7f ebbc 1113 ab3d 2a5f 58bc 92a2 a1bb
00000150: 8d9f 81bd 373e 20bd 3a19 fc3c 4088 1d3e
00000160: ae7c 5e3e a444 403c 2ec1 473d 2d11 9bbd
00000170: 5aed a2bc bd53 443c 6581 acbd c1ee 1a3c
00000180: 1cc5 253c 200b 4f3b d464 83bd 2315 eebd
00000190: c731 893c ac8b 80bd f2e1 6dbd e23f 75bb
000001a0: 6d9e 0b3e b119 abbd 3a24 9cbd e863 ba3d
000001b0: f152 253d 022c 903d 21d4 cf3d 3026 5ab9
000001c0: 8f41 8dbd dccf 253d af91 073d 6523 9ebd
000001d0: 62a8 253d b203 513d bf28 aebc 680d d73c
000001e0: 1a6b 6e3c f592 253d 2e59 3fbc 09fb 8e3d
000001f0: 814b 2fbe 3054 2e3e 18eb b53b 521b b03d
00000200: 3398 3c3d 30a1 bc3d c3ed c53d 8598 e9bd
00000210: cab2 a0bc 6f7e f3bb 9e97 14bc 6916 36bd
00000220: 43f8 8fbd 4e1b cb3c 5ea3 1cbd 5de6 1f3e
00000230: ba2f d4bd cf68 4cbd f14e 143e b2d8 ab3d
00000240: 4d3e 4bbd 900b 5d3c c88f acbd 2081 2a3d
00000250: 811b 73bc 00d8 663e 6732 89bc 9200 bbbc
00000260: f8b5 a2bb 8c0c c7bd b34b ae3d f568 f3bc
00000270: 2732 a23c 1fd8 55bd 8346 17bd 150e 7b3d
00000280: 1c4c 843c 7dc6 af3d 3525 51bd c7ce c73c
00000290: a4e3 513d 040a 0e3d 9ba4 acbc ee6a 36bd
000002a0: ad94 c6bd 69bc 863d 2bff 9bbd bf6f d2bc
000002b0: a11b a73d a86c 923d 81c8 99bd b000 a73a
000002c0: abf2 673d 7e8f 473d 1609 393d 52cd 11bd
000002d0: e9b3 71bd bede 25be c4a0 a83d 13ef c2bc
000002e0: 872d 26bd 01dc e7bc 3f34 4ebd b017 153e
000002f0: 10ed bcbd 4aa2 2b3d d9b2 193d 1f43 553d
00000300: 492c f73c bfa2 08bd 3a55 8fbd 8b6c 6b3d
00000310: 0c07 85bd 2850 d33c cd8b 69bb 92c3 053e
00000320: b01e 823c b87b c9bc 3aab cb3b d069 483d
00000330: 7e6b f93d 49e7 143e 9d00 873d 7b18 bdbc
00000340: fcae 063d 16c0 b6bd 98e8 f13c 4ddb 7a3c
00000350: 36cc 0a3e 9606 b83d ba48 d739 6a31 80bc
00000360: c707 d6bd 8663 0b3c 41d2 9fbc 47ec 04ba
00000370: 08b0 bdbc 03ef 8b3c 040b cc3c fc68 01be
00000380: cf31 7bbd dca4 99bd b201 a53b 4ad9 e9bc
00000390: e52c acbd 9753 54bd 0add a83d 631b 203d
000003a0: 2769 da3d 82d5 7b3d 848e 8dbd a0d4 b63d
000003b0: c731 ea3c 93ba 1ebd 8771 063e be4d 553d
000003c0: 69b5 773e 4d9d 88bd 814e 75bd 0bcc aabb
000003d0: fead 53bd 12bf 9a3c b793 fb3b 254f f7bd
000003e0: 93cf 073d 0eda 2f3d 2d5f 03be 0d55 28bc
000003f0: 8438 7c3e 10dc 2c3c 916f 8bbd c195 65bc
-0.07854682 0.1123393 0.045563072 -0.07848877 -0.011241499 -0.09956829 -0.070189215 0.119501404
0.004813908 -0.028645527 -0.030159889 -0.065464236 0.080409214 0.025703782 -0.0769387 0.009442517
0.01105105 -0.074293986 -0.07045263 0.12715055 0.012938298 -0.13324742 -0.064288355 -0.035676256
-0.044345103 0.0002384587 0.013847112 0.06490839 0.20313044 0.03780229 -0.048926517 -0.054136798
0.030402046 0.012684012 -0.0024388037 0.026679255 -0.031297628 -0.042174004 -0.048198316 0.040805757
0.08816429 -0.05911175 -0.08993446 0.08940866 0.048980437 -0.08699581 -0.050932538 -0.023693617
-0.033347324 -0.09436979 0.059128314 -0.012165653 0.07121613 0.12581612 -0.0806939 -0.06619289
-0.042106185 0.021382654 0.09693311 0.01368696 0.10668175 0.1747814 0.015900936 0.042435624
0.027148405 0.06875296 0.034927357 0.032549493 0.0020117534 -0.029324578 -0.07040195 0.059880935
-0.09297648 0.05074522 0.10791499 -0.06492397 0.09541445 0.023754966 0.022499913 0.079355225
-0.028747339 0.08353246 -0.013206283 -0.00493271 -0.0632926 -0.039121833 0.030773748 0.15384007
0.21727249 0.011735115 0.048768215 -0.075716354 -0.019888569 0.011982855 -0.084231175 0.009456337
0.010117795 0.0031592324 -0.06415716 -0.11625125 0.016747368 -0.0627664 -0.058076806 -0.003742211
0.13634653 -0.083545096 -0.07624097 0.09101087 0.040362302 0.07039644 0.10147882 -0.00020804326
-0.0689727 0.040481433 0.03309792 -0.07721595 0.040443785 0.051028915 -0.021259664 0.02625151
0.014551902 0.040423352 -0.011678977 0.06981475 -0.17118646 0.17024302 0.005551707 0.08598961
0.046043586 0.092104316 0.0966449 -0.11406044 -0.019616503 -0.0074308435 -0.0090693515 -0.044454966
-0.07029774 0.024793293 -0.038241737 0.1561522 -0.103606656 -0.04990464 0.14483239 0.08390941
-0.04961996 0.013491526 -0.084258616 0.04162705 -0.0148381 0.22543335 -0.016747667 -0.02282742
-0.00496554 -0.0971919 0.08510532 -0.029713133 0.019799305 -0.052208062 -0.03693248 0.061292727
0.016149573 0.085827805 -0.051060874 0.024390591 0.051242486 0.03467752 -0.021074584 -0.04453557
-0.096963264 0.06578905 -0.07617029 -0.02568805 0.08159567 0.07149631 -0.07508946 0.0012741294
0.05662791 0.04872083 0.04517468 -0.0355962 -0.059009466 -0.1619825 0.082337886 -0.02379564
-0.040570762 -0.028303148 -0.050342795 0.14559817 -0.092249036 0.041902818 0.037524078 0.052065965
0.030172484 -0.03335833 -0.069986776 0.05747656 -0.06495485 0.025795057 -0.0035636306 0.13062885
0.015883774 -0.024595127 0.00621548 0.048929036 0.12178706 0.14541353 0.06591914 -0.023082962
0.03288172 -0.08923356 0.029529855 0.015311074 0.13554463 0.08985631 0.0004106218 -0.015648562
-0.10450702 0.008507615 -0.019509437 -0.00050706085 -0.023155227 0.017081743 0.024907596 -0.12637705
-0.061326798 -0.075021476 0.0050356025 -0.028545994 -0.084070005 -0.05183753 0.08245285 0.039088618
0.106645875 0.061482914 -0.06911948 0.08927274 0.028588189 -0.03875215 0.13129245 0.052076094
0.24190296 -0.06670628 -0.05988932 -0.005212312 -0.051679604 0.018889938 0.007677521 -0.120756425
0.033156943 0.042932563 -0.12829275 -0.010274184 0.24630934 0.010550514 -0.06808389 -0.014012755

hidden_layers.2.bias f4 [128]
00000000: 2fed 23bd 6261 3d3e 8e73 a1bd b1ac 363e
00000010: 1624 073e 4cb0 3ebd 41b8 1c3d 023a c7bd
00000020: afae ffbc 9fae 613d f7fb 9dbc 6188 573d
00000030: d702 fd3d dc1b 13bd 036c b93d de5d 433e
00000040: cb81 01be ec64 c2bb 7a4d 85bd 3250 32bd
00000050: d024 9d3d 6664 153e e303 903c 95c6 473e
00000060: 7075 9c3b 8cd4 bc3d 47ec b3bd c4c5 dfbd
00000070: 011f 193d da2e 1fbe 3c41 493e 09a4 f73d
00000080: 37ca 3ebe bed6 efbd b6b7 443e dbe2 273e
00000090: 82c1 38bd fe86 c43b b055 38bc e2de 613c
000000a0: 5f1b afbd 14c8 e03d 6254 023e 5782 bfbd
000000b0: 7af9 6b3e 5390 fbbc 433e bb3d 0215 793d
000000c0: 0b4c 043e f8d9 c43d 809a 2e3e c6ed c13d
000000d0: 8e48 1a3c c883 c53d 6414 83bd 88ad 18bb
000000e0: 5839 a0bd a388 90bc 1724 8cbd df7b aabd
000000f0: ecd0 c73d 6681 30bd 3724 5b3e fe47 493d
00000100: 840f 5cbd 79c2 d33d 0fb7 99bd 6252 41bd
00000110: 4e20 6ebc bf3f 3ebc 01ab 56bd 79eb 8e3d
00000120: 5c27 883e f171 973e 72a6 8abc 1bda 613d
00000130: 785c a03d 08bf dfbd 77be dabd bacd e63d
00000140: a5e2 0a3d 2ddb 843e 150d be3d 434b dcba
00000150: 56f4 df3d 6bf3 6dbd 2b41 9ebd 0bd6 ffbc
00000160: f36b 1a3e 4238 13bd d9bf 043e f13c b5bd
00000170: a548 9cbd afce 093c 48f8 283e e308 e33d
00000180: bec7 bcbb fd8b 9bbd 6978 b0bd 0821 123d
00000190: 7127 193c e0a0 183e 1c90 cdbd 01a5 243d
000001a0: 12ec 7a3d dcc1 00bd 3c03 f23b a77a d93d
000001b0: 5aab e7bd 61f3 a0bc f368 1e3d 44aa 043e
000001c0: 6c53 c8bc 8ae3 eb3d bf08 1e3b 13a4 053e
000001d0: 87a1 be3c 25d7 c53d a5ff 50be ace7 5f3d
000001e0: 83ca b9bd 9b47 443e a65c abbd ae8e 03bd
000001f0: d6a5 88bd ed22 943d 1bbc 2ebd 7b8d c7bd
-0.040021118 0.1849418 -0.078833684 0.17839314 0.1319736 -0.04655485 0.038261656 -0.09727861
-0.031211225 0.055098172 -0.019285185 0.052620295 0.12354057 -0.03591524 0.09053805 0.19078776
-0.12647168 -0.005932441 -0.06508918 -0.04353351 0.07673037 0.1458908 0.017579978 0.19509347
0.004774742 0.092202276 -0.08785301 -0.10926393 0.037383083 -0.15545216 0.19653791 0.12091834
-0.18631826 -0.11710881 0.19210705 0.16395132 -0.04510642 0.0059975376 -0.011250898 0.01378605
-0.085501425 0.10975662 0.12727502 -0.09351032 0.23044387 -0.030708468 0.09142735 0.06081105
0.12919633 0.09611887 0.17051125 0.0946918 0.009416712 0.09644276 -0.064003736 -0.0023296792
-0.078234375 -0.017643278 -0.06842821 -0.08324408 0.097566456 -0.043092154 0.21400534 0.049140923
-0.053725734 0.10339827 -0.07505619 -0.047197707 -0.014534069 -0.011611878 -0.052409176 0.069785066
0.2659253 0.29579118 -0.01692507 0.055139642 0.07830137 -0.10925108 -0.106808595 0.11269708
0.03390755 0.25948468 0.09279839 -0.0016807098 0.10935275 -0.05809347 -0.077272736 -0.031229993
0.15080242 -0.035942324 0.12963809 -0.08849514 -0.07631043 0.008411094 0.16500962 0.110856794
-0.005761116 -0.0759506 -0.086167164 0.035676032 0.0093477825 0.14905119 -0.10037252 0.040196422
0.06126029 -0.03143488 0.0073856395 0.10619097 -0.113119796 -0.019647302 0.038674306 0.12955576
-0.024453841 0.11518009 0.00241141 0.1305087 0.023270382 0.09660176 -0.2041002 0.0546643
-0.09071829 0.1916794 -0.08367281 -0.03211849 -0.06672256 0.07233224 -0.04265986 -0.09743782

hidden_layers.3.weight f4 [128, 128]
00000000: 90d4 063d 0c06 333c e42a ae3d 0bd9 173c
00000010: ed25 3f3d f24a 81bd 3208 8a3d 9a85 ac3d
00000020: 9949 733d 91d1 623a 43ad 393c b96d e43c
00000030: 8d23 633d 04b0 86bd a357 5dbc ee2a 6cbd
00000040: 2025 64bd 0088 ac3d 52db 6b3d 846b 113d
00000050: df70 143d 8685 b33d c156 b33d adc2 1fbd
00000060: 17cf 983d 8a08 b2bd da24 aebb 524d 58bc
00000070: 941d 1f3d 8918 abbd b181 adbd 39d5 513b
00000080: a87c eabc 21d1 243d 0269 5bbb af89 9b3d
00000090: 1d9f 293d 9bad 60bb e8c1 1ebc 3bb7 8b3d
000000a0: 8425 813c cab1 23bd 1ce4 8abc f4c9 62bd
000000b0: dc4b a8bd 6e27 213d 29a9 45bc 9bbf c73b
000000c0: ccf5 a0bd 2350 93bd adf9 8e3d 841a 84bc
000000d0: 8073 883c 8eb5 9f3c 3ef4 49bc 1577 f6bc
000000e0: 4ace 46bc 9511 b6bc 500b 19bd 585a 873d
000000f0: 1bf3 2a3b 87db 7a3c 3965 36bd 883c 7f3d
00000100: 932d 95bd eb2a f63c eb6b 493d 6d8f 57bd
00000110: 506d 80bd 3a9b 393d 7c34 9dbd 9960 4f3d
00000120: c400 9dbd b207 dfbc cdef 7cbd 7edb 29bd
00000130: 9758 693d be86 253c 23c4 32bd d79f 7f3c
00000140: b6ef d339 4aac b13d e183 0cbd 6e7b c13c
00000150: 0288 243c 3052 5ebd 7aa4 d43c d868 233d
00000160: 5400 f3bc 7a67 243d 9e13 763d a641 173d
00000170: 63b0 fcbc 6ff2 85bd b10c 67bc 4a60 943d
00000180: 4818 073c f5b2 6d3d b8a7 15bd bb23 053c
00000190: cf25 3b3d 7958 153d b385 0dbd 5e2f 333c
000001a0: 3c5c 943c fa74 babc fcb0 45bd a11d 15bd
000001b0: 71df 3b3c 800c 54bd 6e78 8fbd 51f7 ab3d
000001c0: bf6f 033d 5a73 6cbc dd95 413d a87c 883d
000001d0: 7ccb 843d fd87 003d c679 933d 9a40 dbbb
000001e0: 9c6f 333d e762 9bbd e3dc 893b b5bd 963d
000001f0: 6fd6 943c 641e 5dbd 3d4e cebb 3db4 2f3d
00000200: 5000 83bd 83e0 1a3d 2903 313d a982 a8bd
00000210: 429e 9e3d 5a20 e7bc ff01 fcbc 42d4 b63c
00000220: c54b 9cbc 8d3f 7c3d 5e3b 903d 009c 80bd
00000230: 4109 1ebc 1aeb 02bd b9c0 9cbc 3128 71bd
00000240: afb9 83bd bfa9 18bc 0187 adbd 2292 9abd
00000250: e5e4 993c ca50 53bd dcf4 9fbd 3ae9 ddbb
00000260: 1366 93bd aeb3 a3bc f101 983b e2cb 993b
00000270: e5f5 a13c 292e c13c bc2d 0abd 8954 a9bd
00000280: 025a 5f3d b645 683d 393b d63b 73a2 b3bd
00000290: 3fba 113a 7b39 80bd 1d5b af3d 13c5 d73c
000002a0: aeb3 423d 98f4 853d 3d33 b2bc 3e43 ab3d
000002b0: 0b03 7cbd 2aff 363d c064 cbbc 8826 2e3d
000002c0: 5e91 76bc 675d 33bd 75dc a63d f08d 93bc
000002d0: 74c0 073d e9bc dcbc 0059 9e3d 62b8 56bd
000002e0: b9d0 d43c 6be4 3f3d b840 fd3c 51b6 b0bd
000002f0: 520d 413d 69e4 163d d34f 08bd 777f 5d3c
00000300: a1b5 5c3d 5e77 2c3d 6767 983d 0bd1 ef3b
00000310: 6870 483c 1a31 053d 0e34 513c 04c2 8e3d
00000320: 3495 7bbd c47d 363d 1cdc 88bd 6e85 c639
00000330: 897b 50bc 8869 b1bd 7193 98bd b97e 31bd
00000340: e85e 3b3d 63af 9b3d e7be 7b3d 301c 00bc
00000350: 219a 2dbd 8987 193d 9b45 9ebd 073b 3c3c
00000360: 43ea a3bd 3ab4 4d3d b870 80bd fd7c abbd
00000370: 4548 483c f0de 94bc 3a16 1abd c5ae 843b
00000380: a508 493a 13a1 94bd 3612 66bd b06b 40bd
00000390: 917b 8bbb 025f 0f3d a5c7 573d 30bc a4bd
000003a0: 433b 0c3d 92d0 4e3d 2587 783d 541f 4ebb
000003b0: 56e2 f03c 6e6e 8fbb e439 fbbc 722c 683d
000003c0: f177 22bd c24d 473c 954d 953d e2a8 72bc
000003d0: 3f6a 61bd cd64 b9b9 6ead 233d 4a27 1abd
000003e0: 0e16 5ebd a6e7 96bd 17e1 983d f39f 88bd
000003f0: 7c5c 51bc 7799 8fbd a0f4 5a3d ddb4 6cbc
0.03291756 0.010926735 0.085042745 0.009268056 0.04666703 -0.06313123 0.067398444 0.0842392
0.05939636 0.00086524436 0.011332813 0.027884351 0.055453826 -0.06576541 -0.013509664 -0.05765813
-0.055699468 0.084243774 0.057582207 0.035502926 0.036240455 0.08765702 0.08756781 -0.039004017
0.07461374 -0.08693035 -0.0053144516 -0.013202028 0.038846567 -0.08354289 -0.08472002 0.003201796
-0.028623894 0.040238503 -0.0033479338 0.075946204 0.041411508 -0.0034283164 -0.009689786 0.06822058
0.01576496 -0.039964475 -0.016954474 -0.05536838 -0.08217594 0.039344244 -0.012064257 0.006095839
-0.07859382 -0.07193019 0.069812156 -0.016125925 0.016656637 0.019495752 -0.012326298 -0.03008608
-0.012134144 -0.02222518 -0.037364304 0.066090286 0.0026084844 0.015311128 -0.044530127 0.062313586
-0.07284083 0.030049762 0.049175184 -0.052627016 -0.0627085 0.04531405 -0.07676026 0.050629232
-0.07666162 -0.02722535 -0.06175213 -0.04146909 0.05696925 0.010102926 -0.04364408 0.015602074
0.00040423655 0.0867544 -0.034305457 0.023618426 0.010042192 -0.0542776 0.025957335 0.03989491
-0.029663242 0.040137745 0.060077302 0.03692784 -0.030845826 -0.06540381 -0.014102147 0.07244928
0.008245535 0.058031995 -0.036536902 0.008126195 0.045690354 0.036461327 -0.034551334 0.010936586
0.018110387 -0.022760857 -0.04826449 -0.03640521 0.011466847 -0.051769733 -0.07005392 0.08396781
0.03208899 -0.014431799 0.04726206 0.06664401 0.06484124 0.03137969 0.07200961 -0.0066910507
0.04380761 -0.075872235 0.00420724 0.073604025 0.018168656 -0.05398406 -0.006295948 0.042896498
-0.06396544 0.037811767 0.043215904 -0.082280464 0.07745029 -0.028213669 -0.03076267 0.02231801
-0.019079098 0.061584044 0.070425734 -0.06279755 -0.009645761 -0.03196249 -0.019134866 -0.05887622
-0.06431901 -0.009317814 -0.084730156 -0.07547404 0.018785903 -0.05159072 -0.07810375 -0.0067721875
-0.071972035 -0.019983139 0.0046389033 0.004693494 0.019770572 0.023581581 -0.033735022 -0.08268077
0.054529198 0.056707107 0.0065378216 -0.08771219 0.0005559064 -0.062609635 0.085623 0.02633909
0.047534637 0.06540793 -0.021752948 0.08362435 -0.06152634 0.044676937 -0.024828315 0.042517215
-0.015049307 -0.043790247 0.081475176 -0.018012017 0.033142522 -0.026945548 0.07731819 -0.052421935
0.025978433 0.046848696 0.03091465 -0.08628524 0.047131844 0.036838923 -0.03327925 0.0135191595
0.053884152 0.042106025 0.074415974 0.007318621 0.012233831 0.03251753 0.012768758 0.06970599
-0.061421588 0.044553533 -0.066826075 0.00037864916 -0.012724766 -0.086627066 -0.07449997 -0.043333743
0.045744807 0.07601812 0.061461356 -0.00781922 -0.042383317 0.037482772 -0.0772812 0.011488683
-0.08003666 0.050220706 -0.062714994 -0.08373449 0.012224262 -0.018172711 -0.037618853 0.0040491545
0.00076688296 -0.07257285 -0.05616971 -0.0469777 -0.0042566736 0.035002716 0.05268063 -0.080437064
0.034236204 0.050491877 0.06067576 -0.0031451778 0.0294048 -0.004377178 -0.030667253 0.05668301
-0.039665166 0.012164535 0.07290188 -0.014810773 -0.055032965 -0.00035361052 0.039960317 -0.037635125
-0.05422025 -0.07368402 0.074648075 -0.06671133 -0.012778398 -0.07011693 0.05345595 -0.014447418

hidden_layers.3.bias f4 [128]
00000000: 43d1 8dbd cc22 a9bd 76b5 5bbd 674c fbbb
00000010: ab97 a43c 1628 3e3e 5841 a5bd d674 9abd
00000020: d6b5 8abe 9b7a 49bd 6fdf bfbd 787c a4bc
00000030: e635 e8bd 64a1 5abd 76ae 6ebd eed1 acbc
00000040: bfc1 bd3d 6893 d43c 613a f43c d2c9 74bc
00000050: a00e e33c cf94 19bc 732d cfbd 8b6b 5c3d
00000060: 0916 74bd ccd3 dc3c cc57 3fbd abbc 2fbe
00000070: 8eb9 303c aaf7 803d ec7c 1c3e dbf0 87bd
00000080: d78f 343e fe75 173c 5145 a3bd 8c7d bcbd
00000090: 8ff6 78bd 40b1 a0bc a808 4e3d 08fd 3c3e
000000a0: 75a7 99be 557f 64bd 588f 773d 039d 90bd
000000b0: 30aa 143d 60d5 93bd ec67 4d3e f2b9 e83b
000000c0: 10ec 8c3d 78a7 013d 8a6d ac3d c1af 38bd
000000d0: a86a 4abd 2b13 033d 99a1 643d cc7b a9bd
000000e0: 259c 353e ca6d b43d 47a3 fd3d c22d 69bd
000000f0: bec9 f3bd 5027 da3d 610d 42bd c612 033f
00000100: ff83 083e 9b07 703e 5585 3abd 7470 49be
00000110: c90d 05be 92bb 743b 195f 2b3d 9ba1 d3bc
00000120: 5edf a63d a45a 87bd fc7b 2ebe 0ec0 36bd
00000130: f7c0 c6bd 70af 3e3c de4c d4bc 0e50 433c
00000140: 6f09 5f3c fc2d 98bd 4f54 b6bd e71e 303e
00000150: 4064 5bbb 4c24 a83e e39d bdbd d53c 0abe
00000160: a3c8 033d 569a 583e df43 cb3d 8f6c d13d
00000170: f3be 4a3b 5a51 aa3d edf9 f3bc 1ec3 103e
00000180: 41ff 803d b569 a0bd b866 a8bd 186b 31be
00000190: cff5 1e3e 4ac2 4cbd 452b f4bc d6a5 293e
000001a0: 96bf df3d 4570 d43e ce1e 83bd a452 d8bc
000001b0: 82b6 18bc ce7b b1bd 0443 c23d 55f0 d7bd
000001c0: 18ad 4c3d b914 de3b 2330 a33c 2c13 0d3d
000001d0: 8ee9 9b3c 45d6 8abe cd67 083d 625c a2bd
000001e0: 9d1a 60bd 6dd9 35be de7a 85bd 5de7 e73d
000001f0: 1336 cdbd 0c54 733e 042b 503d 5b30 cf3d
-0.06924679 -0.0825859 -0.05363985 -0.00766902 0.020091852 0.18569979 -0.08069104 -0.07541816
-0.27091855 -0.04918919 -0.093687885 -0.020078883 -0.11338405 -0.05337657 -0.058271848 -0.021096196
0.0926547 0.025949195 0.029812993 -0.014940696 0.027716935 -0.009373858 -0.101160906 0.0538135
-0.059591327 0.026956461 -0.04671459 -0.17161815 0.010786427 0.06297238 0.15282029 -0.066377364
0.17632996 0.00924444 -0.079722054 -0.09203634 -0.06078201 -0.01961577 0.050301224 0.18455899
-0.30010572 -0.055785496 0.060439438 -0.070611976 0.036295116 -0.072184324 0.20059174 0.0071022445
0.06880963 0.03165385 0.084193304 -0.045089487 -0.04941812 0.032000702 0.055818174 -0.082755655
0.17735346 0.08810003 0.12384658 -0.056928404 -0.11903714 0.106520295 -0.04737604 0.5120052
0.13331603 0.23440401 -0.04553731 -0.19671804 -0.1299354 0.0037343246 0.04183874 -0.025833895
0.08148073 -0.06609085 -0.17039484 -0.04461675 -0.09704774 0.011638507 -0.02591556 0.011920942
0.013613089 -0.07430646 -0.08902799 0.17199288 -0.0033476502 0.32840192 -0.0925863 -0.13499768
0.032173764 0.21152624 0.09925055 0.10225784 0.0030936569 0.08316298 -0.02978226 0.14136931
0.06298686 -0.07832662 -0.08222717 -0.1732601 0.15523456 -0.049989976 -0.029805789 0.16567168
0.10925214 0.41491905 -0.0640236 -0.026406594 -0.009320857 -0.08666192 0.094854385 -0.105438866
0.049969763 0.0067773727 0.019920414 0.03444211 0.019032266 -0.271166 0.033302117 -0.07927777
-0.05471288 -0.17758723 -0.06517576 0.11323426 -0.100200795 0.2376253 0.050822273 0.10116645
