data/PhotZ_LR_model_relz.pth (torch, 272402 bytes, 11 tensors)

input_layer.weight f4 [128, 5]
-0.37007633 0.014147462 -0.39726898 -0.15677549 0.3377854 0.024659919 0.1702087 -0.014251381
0.091250844 -0.3117629 0.45453745 0.20182128 0.05583827 -0.2976084 0.41593397 -0.49981833
-0.05850124 0.6064303 -0.6268448 0.28285745 0.22395714 0.5177693 0.8920441 -0.21135849
-1.3197341 0.46648654 -0.42024988 -1.2161857 0.6165342 0.5656356 -0.53964835 -1.444191
0.8788436 1.6345848 -1.1660116 -0.03864944 0.2395026 -0.14787373 -0.2784106 0.60940754
-0.53149664 1.6111919 -0.60778165 -1.8406497 0.7709083 0.49413538 0.6440482 0.33686468
-0.09142983 -0.13334312 -0.14164901 -0.36193463 0.12332764 -0.3773412 -0.06384353 0.5960214
0.4166642 0.03343511 0.18086621 0.007872148 -0.20850089 0.027469281 -0.203747 -0.15458107
-0.17556185 0.7254577 -0.74339825 -0.28443047 0.71179914 0.40025964 0.13037723 -0.445026
-0.10701012 0.27881223 0.09307054 -0.5328914 0.60008353 -0.06354701 -0.030648086 -0.47721097
-0.34711948 -0.28629565 -0.15773015 -0.37372187 -0.1264224 -0.5358566 0.4534811 0.35185128
-0.058848847 -0.30713466 -0.42287728 0.41098592 -0.4324136 0.29271963 -0.36221218 -0.26229054
-0.19378762 -0.37699735 0.39265946 0.101689465 -0.93094856 0.63961923 0.97997576 -1.197758
0.23751953 -0.34881943 0.3005353 -0.11011426 -0.32964396 0.2584392 -0.070611335 -0.028104441
-0.13713706 -0.355304 0.19071941 0.24235338 -0.008827883 0.21134152 -0.17792954 -0.3428992
0.8397819 -0.9837817 0.05258266 -0.14922515 -0.50310725 0.08334992 0.7921609 -0.0879218
-0.091624536 -0.4436559 -0.027595527 -0.1726317 0.12562455 -0.29865623 0.44850868 -0.28789726
-0.027578626 -0.34423578 -0.34831426 0.15393722 -0.23996264 -1.1128619 0.8858808 1.0915922
-0.5933601 0.1614323 -0.35294712 -0.4059758 -0.27870503 -0.19681218 0.17227034 -0.3768524
-0.2021164 -0.10265439 -0.11790669 -0.17615484 -0.21495682 0.39686507 -0.32972413 0.006933494
-0.471005 0.40837994 0.5100588 -0.5990766 0.3165612 -0.8749845 0.4435851 -0.34864268
-0.74225146 0.8976631 0.017863614 -0.20236368 0.29624173 0.10877689 -0.18112247 -0.042602412
-0.0016236925 0.5722804 -0.60980225 -0.41361502 0.5107683 -0.22491258 0.3690065 -0.17745346
-0.10756563 -0.3453204 0.4180002 -0.20186509 -0.41978568 -0.0054826075 0.19680831 0.73924047
-0.3057864 -0.05747812 0.4010552 -0.5858594 0.16671367 0.72103715 0.4616956 0.10423924
0.082818195 -0.45818466 0.31888175 -0.7713263 -0.107429154 0.26026317 0.111747526 -0.43194434
0.21202886 -0.36556405 -0.18320417 -0.32248572 -0.3881363 0.42948085 0.28393003 0.13938639
-0.16639288 -0.39996225 0.23261927 -0.1076378 -0.31358388 -0.420503 -0.35764942 -0.018454967
-0.2951466 0.25361124 0.57209 -0.076874666 -0.51844573 0.21080616 0.31751874 -0.012379103
-0.17351665 -0.38314885 0.4131235 -0.25805628 0.44189972 -0.39263567 0.07900862 0.14713737
-0.97821015 0.7595745 0.7887292 -0.019157048 -0.62570196 -0.28530633 -0.22577041 -0.41750744
-0.110168375 -0.017564977 -0.91268504 -0.35394755 0.60639876 -0.06255363 0.38780084 0.16489555
00000000: a57a bdbe c2ca 673c d766 cbbe c189 20be
00000010: 35f2 ac3e 9903 ca3c 304b 2e3e a07e 69bc
00000020: b9e1 ba3d 639f 9fbe 22b9 e83e 3daa 4e3e
00000030: abb6 643d 2160 98be 4cf5 d43e 30e8 ffbe
00000040: ff9e 6fbd 043f 1b3f e778 20bf b1d2 903e
00000050: 0555 653e 878c 043f 015d 643f 5c6e 58be
00000060: 0ced a8bf 53d7 ee3e fe2a d7be f9ab 9bbf
00000070: 2fd5 1d3f 7fcd 103f 6526 0abf 40db b8bf
00000080: e5fb 603f 133a d13f de3f 95bf e04e 1ebd
00000090: 2b40 753e 366c 17be d68b 8ebe 2202 1c3f
000000a0: 2a10 08bf 893b ce3f 9497 1bbf 699a ebbf
000000b0: 3f5a 453f 50ff fc3e 58e0 243f 8779 ac3e
000000c0: 903f bbbd 198b 08be 700c 11be 7f4f b9be
000000d0: 3493 fc3d de32 c1be 66c0 82bd dc94 183f
000000e0: 0355 d53e 41f3 083d fe34 393e 2ffa 003c
000000f0: 4281 55be 4207 e13c 0ea3 50be 804a 1ebe
00000100: 7cc6 33be 99b7 393f 594f 3ebf dfa0 91be
00000110: 7838 363f d5ee cc3e 9c81 053e 73da e3be
00000120: 1f28 dbbd 7ac0 8e3e c49b be3d 926b 08bf
00000130: 139f 193f ef24 82bd b211 fbbc ff54 f4be
00000140: a5b9 b1be 5895 92be 0384 21be 7958 bfbe
00000150: e074 01be e62d 09bf ad2e e83e da25 b43e
00000160: 7d0b 71bd c140 9dbe 5f83 d8be bf6c d23e
00000170: 5165 ddbe 59df 953e e073 b9be f24a 86be
00000180: 4370 46be cc05 c1be a90a c93e 9142 d03d
00000190: a552 6ebf 16be 233f b1df 7a3f 2250 99bf
000001a0: 5238 733e 7698 b2be c3df 993e 9683 e1bd
000001b0: 18c7 a8be 2552 843e ad9c 90bd 493b e6bc
000001c0: a86d 0cbe 68ea b5be f34b 433e 7c2b 783e
000001d0: d3a2 10bc e969 583e 2933 36be 7c90 afbe
000001e0: f2fb 563f 1ed9 7bbf ea60 573d 7ace 18be
000001f0: a3cb 00bf 5db3 aa3d 0fcb 4a3f 5810 b4bd
00000200: a5a5 bbbd de26 e3be 0410 e2bc 5dc6 30be
00000210: b9a3 003e 78e9 98be eea2 e53e 4567 93be
00000220: 92ec e1bc ac3f b0be 3f56 b2be b8a1 1d3e
00000230: c4b8 75be 4272 8ebf 16c9 623f 4bb9 8b3f
00000240: 73e6 17bf 824e 253e 7cb5 b4be 0fdc cfbe
00000250: 6db2 8ebe 2289 49be a367 303e ccf2 c0be
00000260: 9af7 4ebe 773c d2bd 1079 f1bd ef61 34be
00000270: a41d 5cbe e631 cb3e 9ad1 a8be 5d32 e33b
00000280: 9127 f1be 2d17 d13e 3793 023f 165d 19bf
00000290: 4f14 a23e fcfe 5fbf 961d e33e 4b81 b2be
000002a0: 3104 3ebf 40cd 653f b756 923c 6d38 4fbe
000002b0: ffac 973e 6bc6 de3d 2b78 39be de7f 2ebd
000002c0: 14d2 d4ba f880 123f 001c 1cbf 59c5 d3be
000002d0: b6c1 023f 7c4f 66be 6cee bc3e 5cb6 35be
000002e0: 5e4b dcbd d6cd b0be 1f04 d63e b9b5 4ebe
000002f0: 26ee d6be 72a7 b3bb 1e88 493e dd3e 3d3f
00000300: 0990 9cbe 2d6e 6bbd 1b57 cd3e e2fa 15bf
00000310: fdb6 2a3e e495 383f 5e63 ec3e 627b d53d
00000320: 969c a93d 2e97 eabe 7844 a33e a475 45bf
00000330: d103 dcbd 3741 853e e3db e43d cf27 ddbe
00000340: 181e 593e 362b bbbe e099 3bbe d91c a5be
00000350: cdb9 c6be eae4 db3e 475f 913e 4ebb 0e3e
00000360: e562 2abe dac7 ccbe bf33 6e3e 3571 dcbd
00000370: 118e a0be 2b4c d7be d31d b7be df2e 97bc
00000380: 751d 97be 55d9 813e 7e74 123f 7770 9dbd
00000390: dcb8 04bf 92dd 573e d191 a23e b9d1 4abc
000003a0: 59ae 31be 162c c4be ec84 d33e f41f 84be
000003b0: ae40 e23e 8b07 c9be 45cf a13d 2eab 163e
000003c0: fb6b 7abf 7973 423f 28ea 493f 3eef 9cbc
000003d0: 012e 20bf ac13 92be 5c30 67be 89c3 d5be
000003e0: f59f e1bd 6de4 8fbc baa5 69bf 9d38 b5be
000003f0: f33c 1b3f 1e1c 80bd d58d c63e 61da 283e

input_layer.bias f4 [128]
-0.0067128357 0.0018482105 -0.6335112 0.30470484 0.12838736 0.032455448 0.50106615 -0.17445816
0.5300288 -0.8049183 0.021069387 -0.79769427 -0.023284076 -0.5059763 -0.057422075 0.44032642
-0.1504119 0.16032095 0.15917943 -0.1447337 0.36169603 -0.22539791 -0.31814793 -0.28060678
0.5574627 -0.0878724 -0.12756875 0.117345236 0.12113195 -0.12972674 0.33329412 0.0248909
-0.016689274 0.5541861 -0.07958433 0.43455333 -0.16859932 -0.086530305 -0.70124114 -0.47522295
0.58246124 -0.41881785 -0.05952425 0.05033024 0.054288425 -0.1683658 -0.37001145 -0.18355194
0.19810368 -0.13085759 0.419865 0.07463794 0.3808699 -0.38370463 0.02095217 0.14474319
-0.4085868 -0.31754178 0.0056818877 0.16059664 0.25093117 0.10914919 0.04882853 0.09421102
-0.2766039 0.20556825 0.02839585 0.44473562 -0.36188146 -0.25436324 0.4201071 -0.13995075
-0.41479155 0.64607537 -0.33005548 0.3595108 -0.3111521 0.53459007 -0.75228024 -0.56510055
0.2313457 0.010248594 0.2290319 -0.16259708 -0.032812744 0.0028440242 -0.11827131 -0.050969694
-0.41585013 0.19933732 0.34318525 0.68874055 -0.28845018 -0.39208832 0.035114758 -0.2881972
0.41164204 0.29389003 -0.3056037 0.35790393 0.13862263 -0.3441995 0.06592591 0.058831353
-0.3899614 -0.43095455 0.19902071 0.17918764 0.044002198 -0.29274523 -0.42660177 -0.29979658
-0.016940573 0.05255962 0.17721768 0.007421512 -0.06088758 -0.10209118 0.26542845 -0.08066084
-0.45216858 -0.3830053 -0.18680231 0.41274506 0.35582092 -0.19486172 -0.30072042 -0.5154678
00000000: 59f7 dbbb a73f f23a ca2d 22bf 4602 9c3e
00000010: fa77 033e 01f0 043d df45 003f 29a5 32be
00000020: f8af 073f 200f 4ebf b599 ac3c b135 4cbf
00000030: 3fbe bebc aa87 01bf 6933 6bbd 7772 e13e
00000040: 9405 1abe 2d2b 243e efff 223e 1235 14be
00000050: 3930 b93e b6ce 66be 49e4 a2be b1ab 8fbe
00000060: e0b5 0e3f 72f6 b3bd 62a1 02be b352 f03d
00000070: 0714 f83d 16d7 04be 87a5 aa3e 00e8 cb3c
00000080: f2b7 88bc 24df 0d3f 1cfd a2bd c67d de3e
00000090: 4da5 2cbe cd36 b1bd 8a84 33bf 6c50 f3be
000000a0: 2e1c 153f 4b6f d6be b3cf 73bd 1527 4e3d
000000b0: 8a5d 5e3d 1668 2cbe 2472 bdbe 0af5 3bbe
000000c0: b1db 4a3e 88ff 05be 8cf8 d63e c7db 983d
000000d0: 6101 c33e ef74 c4be e3a3 ab3c 8f37 143e
000000e0: 4a32 d1be d694 a2be 212f ba3b 7273 243e
000000f0: 0d7a 803e 9c89 df3d 6d00 483d b5f1 c03d
00000100: 079f 8dbe 7c80 523e 6a9e e83c 63b4 e33e
00000110: 8748 b9be e63b 82be 4718 d73e 404f 0fbe
00000120: 8f5f d4be 3265 253f 08fd a8be cd11 b83e
00000130: 544f 9fbe e5da 083f 7095 40bf 6eaa 10bf
00000140: e3e5 6c3e b8e9 273c 5787 6a3e d97f 26be
00000150: a866 06bd cf62 3a3b 3b38 f2bd 99c5 50bd
00000160: 4fea d4be 151f 4c3e fab5 af3e 4d51 303f
00000170: beaf 93be cdbf c8be 7ed4 0f3d 958e 93be
00000180: bfc2 d23e c178 963e 1778 9cbe 2f3f b73e
00000190: 17f3 0d3e eb3a b0be 2a04 873d 25f9 703d
000001a0: 05a9 c7be 13a6 dcbe 16cc 4b3e f77c 373e
000001b0: a63b 343d b4e2 95be 8c6b dabe f07e 99be
000001c0: f5c6 8abc c248 573d 8d78 353e 2830 f33b
000001d0: 4165 79bd 2e15 d1bd 3de6 873e 8331 a5bd
000001e0: a482 e7be 4519 c4be 1b49 3fbe 5253 d33e
000001f0: 292e b63e d589 47be 07f8 99be b3f5 03bf

hidden_layers.0.weight f4 [128, 128]
-0.084171556 -0.06307633 -0.0016914092 0.080650784 0.09397984 0.037878964 -0.05159492 -0.037468527
-0.024448572 0.02904791 -0.04975133 -0.022232786 0.018047249 0.031292982 0.026915835 0.043590315
-0.0017966464 -0.081536494 -0.07254004 0.03898578 0.0033582773 -0.06240459 -0.052678913 -0.08640932
0.06849203 0.085306704 0.038939778 -0.0793059 -0.05684671 0.017041689 -0.010586362 0.012664854
0.06441627 0.029517066 0.08409817 0.10075998 0.031027075 -0.07648479 -0.032716688 -0.0053121257
0.10145706 0.030771362 0.0876503 -0.06921724 0.0012679668 -0.026463028 0.0472333 0.0030914503
0.04367683 -0.07680421 -0.0043485644 0.022640303 0.0027912278 0.075970106 -0.08649974 -0.08059522
-0.029576307 0.048558418 0.08769166 0.04838829 0.034598526 -0.082287066 0.022708531 -0.06831652
0.0425489 0.013289262 0.03717657 0.022981938 0.08545338 0.01849645 0.00016773163 -0.135241
0.04668599 0.05566107 0.07704734 0.025634885 0.002957044 0.058325335 0.02627605 -0.01598132
-0.03937795 -0.029800683 -0.12508932 0.006817362 0.08700547 0.10513879 -0.09140789 0.07128117
0.019413218 0.029474905 0.033363745 0.052137233 0.03059274 -0.016726281 -0.001578389 -0.052159093
0.063756235 0.047492288 0.040661924 -0.0749256 -0.022526324 -0.01742587 0.009498919 -0.08417084
0.02035873 0.043780606 -0.10774484 0.11573011 0.08002904 0.054561347 0.07051611 0.06782787
-0.048579734 0.0883799 -0.044320937 0.006210991 -0.013075325 -0.0950626 -0.10147483 0.040955987
0.07661024 -0.041638125 -0.0435618 0.028178683 -0.045203548 0.021052267 0.0058121863 -0.0021505125
-0.012350797 -0.06641663 0.0627981 -0.08606512 -0.004572566 0.043498937 0.04067262 -0.05126523
0.080957495 -0.07894295 0.0836525 0.045743413 0.008831092 0.02133774 -0.06619825 -0.045022696
-0.0038275765 -0.06689988 -0.0066781156 0.007997923 0.024545312 0.006138857 -0.042751327 0.0661629
-0.051580288 0.029562643 -0.01809924 0.03268663 -0.052201085 -0.08310427 -0.04333793 -0.07594645
-0.0111923395 0.040078208 0.06997573 -0.03357669 -0.037793927 0.009118724 -0.018351557 -0.05956924
0.03450105 0.04799467 -0.037919447 -0.01658922 -0.044682615 0.035669707 -0.033320867 -0.0823151
-0.063601874 -0.052924387 0.01565251 -0.046488162 0.059454277 0.04568832 0.06589615 -0.046919618
-0.060288873 0.051283073 0.054596383 0.06895322 -0.05860265 0.037758097 -0.08755272 0.010150838
0.03798689 -0.06250561 -0.028360445 -0.07221757 -0.052575663 0.041854266 -0.02877248 0.003844621
0.052255906 -0.06286277 0.014172271 -0.038480286 0.07982265 0.001657681 0.08483193 0.07712506
0.081033036 -0.01880281 0.061844267 -0.07678895 -0.05019385 -0.046546023 -0.04760803 -0.028498389
0.052972022 0.065386355 0.082391195 -0.08738818 -0.08530194 -0.026200777 -0.011583914 -0.0387551
0.07110883 -0.07836686 0.049071766 -0.07864224 -0.020738846 -0.06270408 -0.021037113 0.02179383
-6.6634166e-05 -0.048150096 -0.04249121 -0.07183631 0.025050674 0.06858836 0.05554015 0.06968228
0.07910486 0.011807903 -0.016126674 -0.04890632 -0.07666455 0.07617859 0.042454246 0.06840589
-0.047583383 0.0054228418 -0.020498615 -0.041445468 0.0034333626 -0.039407894 -0.020455286 0.06409851
00000000: 2362 acbd 2a2e 81bd 46b2 ddba 3d2c a53d
00000010: 8178 c03d f926 1b3d 3255 53bd 9978 19bd
00000020: 5f48 c8bc e2f5 ed3c 0dc8 4bbd 8821 b6bc
00000030: d3d7 933c 122d 003d 997e dc3c c28b 323d
00000040: 737d ebba 9bfc a6bd df8f 94bd 8eaf 1f3d
00000050: 8b16 5c3b f59b 7fbd d8c5 57bd 5ff7 b0bd
00000060: 8d45 8c3d 48b5 ae3d 517f 1f3d 226b a2bd
00000070: 19d8 68bd 039b 8b3c 6c72 2dbc 3f80 4f3c
00000080: adec 833d c6cd f13c a93b ac3d 405b ce3d
00000090: 7e2c fe3c 0fa4 9cbd ef01 06bd 5711 aebb
000000a0: b8c8 cf3d 3914 fc3c 0082 b33d c5c1 8dbd
000000b0: e831 a63a fec8 d8bc b477 413d ee99 4a3b
000000c0: 7ae6 323d 874b 9dbd 677e 8ebb 2878 b93c
000000d0: 08ed 363b 3796 9b3d c726 b1bd 1b0f a5bd
000000e0: 034a f2bc 31e5 463d af97 b33d cd32 463d
000000f0: 2fb7 0d3d 1f86 a8bd 3e07 ba3c 88e9 8bbd
00000100: c147 2e3d 34bb 593c 7646 183d 9e44 bc3c
00000110: 2f02 af3d de85 973c 1ee1 2f39 9e7c 0abe
00000120: cf39 3f3d ddfc 633d ffca 9d3d 4000 d23c
00000130: f7ca 413b 8ce6 6e3d df40 d73c 42eb 82bc
00000140: c64a 21bd 9020 f4bc 6a17 00be 2d64 df3b
00000150: ed2f b23d 0253 d73d 0f34 bbbd ddfb 913d
00000160: 7808 9f3c 5b75 f13c 6ca8 083d da8d 553d
00000170: a09d fa3c 8e05 89bc f2e1 ceba c6a4 55bd
00000180: a192 823d 4687 423d 1e8d 263d 9872 99bd
00000190: 2089 b8bc b3c0 8ebc 5ba1 1b3c c361 acbd
000001a0: 5ac7 a63c 4b53 333d 54a9 dcbd e803 ed3d
000001b0: 44e6 a33d b87b 5f3d c06a 903d 57e9 8a3d
000001c0: 8bfb 46bd 8500 b53d df89 35bd 9285 cb3b
000001d0: e339 56bc 2eb0 c2bd 09d2 cfbd 77c1 273d
000001e0: d4e5 9c3d bd8c 2abd dc6d 32bd fbd6 e63c
000001f0: 5b27 39bd ce75 ac3c 2774 be3b 9def 0cbb
00000200: ff5a 4abc 7105 88bd 4a9c 803d e942 b0bd
00000210: 77d5 95bb f12b 323d 5598 263d 7dfb 51bd
00000220: 0bcd a53d d7ac a1bd 0052 ab3d 725d 3b3d
00000230: 49b0 103c 7ccc ae3c f392 87bd b869 38bd
00000240: 14d8 7abb ce02 89bd 18d4 dabb b809 033c
00000250: 4013 c93c 7728 c93b 041c 2fbd 6a80 873d
00000260: da45 53bd 5b2d f23c db44 94bc 6ae2 053d
00000270: ced0 55bd 9232 aabd 1d83 31bd d089 9bbd
00000280: 1360 37bc 0c29 243d 6f4f 8f3d b687 09bd
00000290: cecd 1abd b366 153c 0156 96bc e0fe 73bd
000002a0: f950 0d3d 0f96 443d 6c51 1bbd 1ee6 87bc
000002b0: 1e05 37bd 661a 123d 767b 08bd d294 a8bd
000002c0: b341 82bd 3ec7 58bd b139 803c 5f6a 3ebd
000002d0: 5486 733d ad23 3b3d 90f4 863d c92e 40bd
000002e0: 77f1 76bd 330e 523d 75a0 5f3d 5937 8d3d
000002f0: 5509 70bd 3ca8 1a3d d74e b3bd b34f 263c
00000300: 2498 1b3d f102 80bd 2a54 e8bc cee6 93bd
00000310: 9459 57bd 616f 2b3d 44b4 ebbc 09f6 7b3b
00000320: 4a0a 563d 32be 80bd d032 683c 819d 1dbd
00000330: 0f7a a33d 8b46 d93a 5dbc ad3d bef3 9d3d
00000340: a6f4 a53d 5a08 9abc 6a50 7d3d 8643 9dbd
00000350: 1198 4dbd 0ba7 3ebd a300 43bd 7475 e9bc
00000360: 31f9 583d 48e9 853d b7bc a83d 93f8 b2bd
00000370: c9b2 aebd 03a3 d6bc 75ca 3dbc abbd 1ebd
00000380: 82a1 913d ce7e a0bd 7aff 483d 2f0f a1bd
00000390: 83e4 a9bc ff6a 80bd 0656 acbc f988 b23c
000003a0: f2bd 8bb8 0939 45bd 430b 2ebd ea1e 93bd
000003b0: 1237 cd3c 0e78 8c3d 117e 633d 95b5 8e3d
000003c0: bb01 a23d ef75 413c 161c 84bc fe51 48bd
000003d0: 4e02 9dbd 8503 9c3d 81e4 2d3d 6318 8c3d
000003e0: cbe6 42bd 18b2 b13b b6ec a7bc b9c2 29bd
000003f0: 4402 613b 2c6a 21bd d891 a7bc 1446 833d

hidden_layers.0.bias f4 [128]
0.030486241 -0.046696242 0.051940124 -0.06989528 -0.07946094 -0.021905407 -0.064724855 0.0044262037
-0.09920471 -0.027958129 0.039332647 -0.0939963 -0.076140575 -0.1406521 -0.16351245 -0.0008018281
-0.16021042 -0.086683884 0.023295926 0.067564666 -0.08766182 -0.05092937 0.06674519 -0.07720729
-0.047885563 0.07243208 -0.0060106968 -0.0012613094 0.035432488 -0.036405794 -0.2076115 0.04115682
0.066996485 -0.10155676 0.028586244 0.019818464 0.012594446 0.080691196 -0.042070244 -0.02283873
-0.07563046 0.10776303 -0.06531502 -0.07288329 -0.03789309 0.019648248 0.1744067 -0.054307986
-0.051959828 -0.05796548 -0.031530604 -0.100778125 -0.020440811 0.043666605 0.016950289 -0.046055347
-0.09208709 -0.08348444 0.029959438 -0.041239224 -0.023060774 0.011853399 -0.18809018 0.24035014
0.01502784 0.08625806 -0.018979132 -0.07002204 0.0108448 0.14681092 -0.044767104 0.08351887
-0.070441775 -0.083437234 -0.009744091 0.050601028 0.0134236915 -0.019000106 0.069185875 -0.029283814
0.03215809 0.05972533 -0.03447529 0.15457122 0.0070409686 0.039479416 -0.07274617 0.013095628
0.027293682 -0.11247076 -0.039311387 -0.03640134 0.16100778 -0.00023811703 0.1137549 0.13970935
-0.004543409 -0.260343 0.008440896 0.023966802 0.017435534 0.08492855 0.07232101 -0.010217009
-0.07319289 -0.044807684 0.21386619 -0.05098333 0.07746551 0.07115746 -0.028933913 -0.038452223
-0.068027794 -0.0137676755 -0.040221523 0.0202228 -0.1352212 -0.08286526 -0.01291458 0.073369324
-0.06562635 0.027131654 -0.087918214 -0.034193683 0.02190802 -0.071441524 0.022719197 -0.020641664
00000000: 48be f93c 8f44 3fbd 2bbf 543d 4225 8fbd
00000010: 6bbc a2bd f872 b3bc 778e 84bd b009 913b
00000020: d72b cbbd 7208 e5bc 451b 213d 2281 c0bd
00000030: 97ef 9bbd 1b07 10be cf6f 27be c631 52ba
00000040: 330e 24be 5287 b1bd 19d7 be3c 585f 8a3d
00000050: 0a88 b3bd 519b 50bd b4b1 883d db1e 9ebd
00000060: a723 44bd 4557 943d 61f5 c4bb 8552 a5ba
00000070: a821 113d 3e1e 15bd 1c98 54be 0e94 283d
00000080: 7435 893d fefc cfbd b32d ea3c 555a a23c
00000090: ef58 4e3c 6d41 a53d d951 2cbd 4a18 bbbc
000000a0: 25e4 9abd ddb2 dc3d e2c3 85bd d643 95bd
000000b0: c935 1bbd 5df5 a03c ac97 323e 0d72 5ebd
000000c0: d4d3 54bd 366d 6dbd 3c26 01bd c364 cebd
000000d0: 7d73 a7bc c1db 323d 55db 8a3c 88a4 3cbd
000000e0: 2898 bcbd e4f9 aabd 7f6d f53c 76ea 28bd
000000f0: f3e9 bcbc c234 423c b69a 40be 591e 763e
00000100: 5437 763c 11a8 b03d 207a 9bbc b767 8fbd
00000110: 63ae 313c 9a55 163e b65d 37bd f10b ab3d
00000120: c743 90bd 24e1 aabd aea5 1fbc 0643 4f3d
00000130: 0bef 5b3c 1ca6 9bbc 53b1 8d3d 9ce4 efbc
00000140: 34b8 033d 8ca2 743d f635 0dbd eb47 1e3e
00000150: edb7 e63b 2bb5 213d f2fb 94bd 0b8f 563c
00000160: 0097 df3c 1257 e6bd fa04 21bd 9219 15bd
00000170: 39df 243e 0eaf 79b9 54f8 e83d f80f 0f3e
00000180: e1e0 94bb ad4b 85be af4b 0a3c 0756 c43c
00000190: f7d4 8e3c 05ef ad3d 0a1d 943d 3e65 27bc
000001a0: 27e6 95bd 4388 37bd bdff 5a3e e5d3 50bd
000001b0: 3da6 9e3d 01bb 913d d006 edbc 1480 1dbd
000001c0: 2852 8bbd d191 61bc 53bf 24bd 49aa a53c
000001d0: 6d77 0abe 43b5 a9bd ad97 53bc a842 963d
000001e0: 1c67 86bd 3443 de3c 770e b4bd ad0e 0cbd
000001f0: 7378 b33c ef4f 92bd 9c1d ba3c b518 a9bc

hidden_layers.1.weight f4 [128, 128]
-0.03428586 0.05779475 0.06480718 -0.043000344 0.06761855 -0.1368859 0.08922444 -0.008559532
0.0014448927 -0.06881565 0.0526806 0.077743456 -0.016507417 -0.12842126 -0.013654243 -0.049164686
0.14023788 0.0840731 0.010979084 -0.076929405 0.03714389 -0.01932102 -0.0843272 0.047267575
-0.09257346 -0.053807143 -0.0038725883 -0.059041288 -0.048782606 0.014563665 0.08287383 0.09346987
-0.040501334 0.014444986 0.05533983 0.09487759 0.0711661 0.018611152 0.032525327 0.07904092
-0.08356525 0.055829197 0.041906703 -0.012581751 -0.012454867 -0.071315825 -0.12626211 0.03405501
-0.040259704 -0.073241234 -0.043684628 -0.01326221 -0.01477816 -0.054403603 -0.09719377 -0.04268456
-0.0031617666 0.0614504 -0.06352035 -0.011650811 0.021077981 -0.12751235 0.1558634 0.064150706
0.09058087 -0.20995283 -0.061640847 0.016359573 -0.0023712472 0.08771361 0.08810581 -0.06079811
0.057539232 -0.045232218 0.065086216 -0.014959681 -0.09612458 -0.022159701 -0.17413202 -0.019777684
-0.06307657 0.03712816 0.08685679 0.12823997 -0.07799621 -0.011597724 0.07378477 0.07308547
0.0438909 -0.014956329 0.04831175 0.04337404 0.03226048 -0.12393259 0.101780705 -0.024005853
-0.083538935 0.14492577 -0.04782986 0.014545613 0.048464995 -0.048620872 -0.04121394 -0.088353984
0.026347013 0.017366018 0.07333091 0.0014190413 -0.031310827 0.011111337 0.024000783 0.0045184596
0.0071873087 -0.055996235 -0.052310556 -0.0637609 0.10810275 -0.0704807 0.08160516 -0.03662257
0.07063375 -0.12597573 -0.036203653 0.09743943 0.013521509 0.054829776 0.05528228 0.09075643
0.01444334 -0.07979454 -0.015830573 -0.03259961 -0.017332165 0.14702499 0.05221254 -0.17038338
-0.058267877 -0.03422384 0.086999156 -0.053550296 0.046896547 -0.020755855 -0.0490871 0.003620265
-0.12881546 -0.020496866 -0.07028145 0.13668959 -0.028030088 0.015694706 0.018645627 -0.030505162
0.016227761 0.075855054 0.034857523 0.0018524891 0.06692225 0.0130724 -0.13891155 -0.031387966
-0.013276768 -0.025925903 0.05562399 -0.07705021 -0.07332682 0.014660846 -0.027098257 0.00039357063
0.03462742 -0.008841968 -0.05652571 0.051913768 -0.025636045 0.10365198 0.08366476 0.07349882
0.0833002 -0.02788082 -0.046464697 -0.0712905 0.03380421 0.00133596 -0.06269558 0.059840407
0.027953975 0.069619365 0.008236002 -0.08597818 0.057145488 0.08599311 -0.13667437 -0.139071
-0.04560418 0.02558638 0.02187768 0.07651372 -0.031954255 -0.114774734 0.030993313 0.015203449
-0.12904216 0.018712008 0.0150480205 -0.007142619 0.01721961 0.06214913 0.044556543 0.04052732
-0.019377222 -0.018868256 -0.09586782 -0.03430732 -0.047937896 0.03752227 0.053432822 -0.012715417
-0.053783692 0.110472605 0.04954348 0.08890662 -0.112666525 0.08720459 0.051161576 0.005711803
-0.045750454 -0.04090628 0.081149876 -0.07147099 -0.103279255 0.065514244 -0.22467907 0.023359273
-0.008896251 -0.054520436 -0.23294678 0.05117387 -0.17343841 -0.033594497 0.038573742 -0.027777417
-0.077185124 0.017367609 -0.04731081 0.07104168 -0.05407336 0.0077258963 -0.060435113 0.06820208
-0.05396989 0.08247926 -0.0913724 -0.013009713 -0.00017472297 0.040667303 0.11568246 0.07370376
00000000: 546f 0cbd 30ba 6c3d a0b9 843d 2121 30bd
00000010: 987b 8a3d d12b 0cbe 4ebb b63d 483d 0cbc
00000020: 8e62 bd3a 38ef 8cbd 9dc7 573d f637 9f3d
00000030: 903a 87bc dd80 03be 0cb6 5fbc e960 49bd
00000040: 859a 0f3e 842e ac3d 9ee1 333c 2a8d 9dbd
00000050: 3124 183d 1e47 9ebc bdb3 acbd a59b 413d
00000060: 2797 bdbd e164 5cbd 40cb 7dbb 47d5 71bd
00000070: 45d0 47bd 709c 6e3c c1b9 a93d 226d bf3d
00000080: bae4 25bd aaaa 6c3c 05ac 623d 2f4f c23d
00000090: 88bf 913d 6a76 983c 4739 053d 35e0 a13d
000000a0: 4224 abbd 28ad 643d 5da6 2b3d b023 4ebc
000000b0: 800f 4cbc 080e 92bd db4a 01be 447d 0b3d
000000c0: 5ce7 24bd 80ff 95bd a7ee 32bd be49 59bc
000000d0: 1820 72bc 50d6 5ebd 870d c7bd 01d6 2ebd
000000e0: a435 4fbb 6ab3 7b3d f516 82bd 0be3 3ebc
000000f0: bbab ac3c 9992 02be a89a 1f3e 7261 833d
00000100: 7782 b93d e0fd 56be 1d7b 7cbd 8304 863c
00000110: ed66 1bbb 31a3 b33d d270 b43d 7007 79bd
00000120: 42ae 6b3d 6b45 39bd ec4b 853d 7319 75bc
00000130: f7dc c4bd 4388 b5bc aa4f 32be cf04 a2bc
00000140: 4a2e 81bd b313 183d f9e1 b13d 5751 033e
00000150: 7abc 9fbd 6104 3ebc 781c 973d d6ad 953d
00000160: f2c6 333d 640b 75bc 8be2 453d faa8 313d
00000170: 9123 043d 5fd0 fdbd 6772 d03d eca7 c4bc
00000180: 7616 abbd 6c67 143e 3ee9 43bd b950 6e3c
00000190: 3b83 463d ae26 47bd f3cf 28bd eff2 b4bd
000001a0: b1d5 d73c 2e43 8e3c 842e 963d 20ff b93a
000001b0: c83f 00bd 530c 363c 4a9d c43c 960f 943b
000001c0: 8483 eb3b 4f5c 65bd 9843 56bd 1395 82bd
000001d0: f964 dd3d 2f58 90bd 9b20 a73d 8c01 16bd
000001e0: 6da8 903d c8ff 00be 484a 14bd 538e c73d
000001f0: 5289 5d3c 3095 603d ac6f 623d 82de b93d
00000200: c2a3 6c3c 526b a3bd 1eaf 81bc 2b87 05bd
00000210: 2ffc 8dbc b88d 163e d1dc 553d fb78 2ebe
00000220: 4caa 6ebd 4c2e 0cbd 9d2c b23d 8e57 5bbd
00000230: 9816 403d 2f08 aabc 8e0f 49bd f841 6d3b
00000240: 33e8 03be 0be9 a7bc b9ef 8fbd 5bf8 0b3e
00000250: 5b9f e5bc 2f92 803c b7be 983c f6e5 f9bc
00000260: 15f0 843c e559 9b3d c3c6 0e3d 38cf f23a
00000270: 880e 893d 9f2d 563c d43e 0ebe ab90 00bd
00000280: cd86 59bc 8f62 d4bc fbd5 633d 80cc 9dbd
00000290: 5f2c 96bd 0c34 703c 2afd ddbc 2858 ce39
000002a0: 7bd5 0d3d e7dd 10bc 8187 67bd 88a3 543d
000002b0: af02 d2bc 7d47 d43d 6e58 ab3d 8d86 963d
000002c0: 4c99 aa3d 5166 e4bc c451 3ebd c100 92bd
000002d0: 4976 0a3d 611b af3a 8a66 80bd 371b 753d
000002e0: bcff e43c 9994 8e3d 4cf0 063c 5415 b0bd
000002f0: 6311 6a3d 281d b03d 5ef4 0bbe a168 0ebe
00000300: 73cb 3abd 879a d13c d238 b33c 3ab3 9c3d
00000310: 77e2 02bd 040f ebbd b0e5 fd3c e317 793c
00000320: a123 04be ed49 993c f98b 763c a20c eabb
00000330: 2410 8d3c 1690 7e3d ec80 363d faff 253d
00000340: fbbc 9ebc 9a91 9abc 5956 c4bd d585 0cbd
00000350: 875a 44bd f4b0 193d 60dc 5a3d 5354 50bc
00000360: 4a4c 5cbd 763f e23d 1bee 4a3d ad14 b63d
00000370: b5bd e6bd 5298 b23d cd8e 513d 142a bb3b
00000380: d464 3bbd 588d 27bd e831 a63d 625f 92bd
00000390: 1384 d3bd 552c 863d 4512 66be f25b bf3c
000003a0: 95c1 11bc d250 5fbd 9a89 6ebe b19b 513d
000003b0: d799 31be 629a 09bd 80ff 1d3d 778d e3bc
000003c0: 3c13 9ebd 8446 8e3c fbc8 41bd 4d7e 913d
000003d0: 077c 5dbd 8429 fd3b cf8a 77bd 88ad 8b3d
000003e0: 880f 5dbd e3ea a83d 7421 bbbd b126 55bc
000003f0: d735 37b9 c292 263d edea ec3d fff1 963d

hidden_layers.1.bias f4 [128]
0.16656959 0.086048 0.0892127 -0.003634978 0.040745996 0.0047182105 -0.08976548 -0.044350725
-0.009728198 -0.030133715 0.0026041341 -0.04700222 0.053002037 -0.10379286 0.098163635 0.021354035
-0.015611712 -0.09719425 -0.037656404 -0.019810295 0.0004610936 0.0012648702 0.013457601 0.094766036
0.006629041 0.006453897 -0.08652656 0.0074835434 -0.07788873 0.11150377 0.019990876 0.09749996
-0.28667718 -0.019698804 -0.06638678 0.026425784 -0.09589859 -0.039919727 0.07380259 -0.028662251
-0.049305804 -0.0773447 -0.06627037 -0.054911263 0.01407711 0.060662914 -0.0037116716 0.08539997
0.10825504 0.016213156 -0.047921874 0.09381446 0.027276242 0.047558695 0.10771915 -0.08740054
-0.07640578 -0.02217607 -0.10320407 0.11484212 -0.052821685 -0.096686624 -0.08918536 -0.049184293
-0.06826053 -0.07171959 -0.02157104 0.03215431 0.00043785005 -0.046367478 0.0316001 -0.022404585
0.05964471 0.10794434 -0.26732567 -0.05536277 -0.016579008 -0.049762145 0.15635233 -0.053364757
0.14513168 0.007455507 0.0070268763 0.15151359 0.043005075 0.014303302 0.103181615 0.01671757
-0.029136501 0.12295105 -0.040231008 -0.05866353 -0.09804511 0.2572509 -0.05775988 0.18474947
0.08399426 0.039211053 -0.02447264 0.04126954 -0.03010154 0.100457355 0.009165615 -0.08654141
0.12729473 0.0833821 -0.07280027 0.06548861 0.014321347 -0.08138763 0.14648418 -0.024609322
-0.026041476 -0.06737671 -0.09750922 -0.025334394 -0.036715373 0.06098341 -0.109962784 0.08027017
-0.027812876 -0.047214687 0.0067926184 -0.059919093 -0.13586248 -0.04002523 -0.027671285 0.013270408
00000000: 3891 2a3e ef39 b03d 26b5 b63d d038 6ebb
00000010: 46e5 263d 389b 9a3b f7d6 b7bd 1ba9 35bd
00000020: 0563 1fbc fbda f6bc 1faa 2a3b 6685 40bd
00000030: aa18 593d 5a91 d4bd 040a c93d a8ee ae3c
00000040: 44c8 7fbc c70d c7bd 9a3d 1abd 3349 a2bc
00000050: efbe f139 00ca a53a 457d 5c3c b214 c23d
00000060: 6d38 d93b 367b d33b d634 b1bd 8338 f53b
00000070: 2084 9fbd 175c e43d e8c3 a33c 0fae c73d
00000080: 5ac7 92be 635f a1bc cbf5 87bd e37a d83c
00000090: 7b66 c4bd de82 23bd d025 973d 19cd eabc
000000a0: e2f4 49bd e666 9ebd c2b8 87bd a2ea 60bd
000000b0: aea3 663c ad79 783d 843f 73bb 2ee6 ae3d
000000c0: d2b4 dd3d 74d1 843c ba49 44bd cc21 c03d
000000d0: 6d72 df3c e8cc 423d dc9b dc3d 0eff b2bd
000000e0: a27a 9cbd 97aa b5bc a85c d3bd 5832 eb3d
000000f0: 8d5b 58bd a303 c6bd d0a6 b6bd 7875 49bd
00000100: 2dcc 8bbd b8e1 92bd c0b5 b0bc 3db4 033d
00000110: 3d8f e539 d3eb 3dbd 1b6f 013d d289 b7bc
00000120: 034e 743d ec11 dd3d e9de 88be 12c4 62bd
00000130: b3d0 87bc 64d3 4bbd d31a 203e 0195 5abd
00000140: 669d 143e 534d f43b b641 e63b 6126 1b3e
00000150: 1726 303d 6658 6a3c e250 d33d 49f3 883c
00000160: acaf eebc c3cd fb3d 45c9 24bd 2b49 70bd
00000170: e0cb c8bd 64b6 833e a095 6cbd f72e 3d3e
00000180: 2f05 ac3d c59b 203d d97a c8bc 400a 293d
00000190: 8197 f6bc 96bc cd3d 602b 163c 9f3c b1bd
000001a0: 8d59 023e 3cc4 aa3d 4f18 95bd e41e 863d
000001b0: 15a4 6a3c 8fae a6bd f3ff 153e 7d99 c9bc
000001c0: ef54 d5bc cdfc 89bd eab2 c7bd 138a cfbc
000001d0: dc62 16bd bdc9 793d 2b34 e1bd b064 a43d
000001e0: d4d7 e3bc 3064 41bd 9d94 de3b b96d 75bd
000001f0: 891f 0bbe 7ff1 23bd e4ae e2bc 206c 593c

hidden_layers.2.weight f4 [128, 128]
-0.0598026 -0.031781413 0.03679314 0.028828915 0.06617245 0.03644399 -0.088814236 0.04214159
0.040132347 0.06985375 0.011058588 0.027644696 -0.016021738 0.0013987449 0.06498829 0.021827206
0.07531712 -0.037693657 0.01690692 -0.09740028 -0.029532738 -0.046982378 -0.058106016 0.03564877
-0.07402921 -0.078309245 -0.06076812 0.08109685 0.030665405 -0.06269544 0.0076070805 -0.052722815
-0.0127867125 -0.07071189 -0.05365673 -0.030577092 0.04718999 -0.075557634 -0.058532573 0.057852272
0.012179582 -0.02879205 0.084856704 0.08205754 0.054316476 -0.027640704 -0.05942639 -0.0654422
0.073430665 0.012596673 0.06512846 -0.012360222 -0.006133946 -0.06348692 0.001448408 -0.015068215
-0.01800748 -0.062333334 0.017602058 -0.014912192 0.08539199 -0.0705274 -0.07600251 0.002472538
0.0047929413 -0.0015146552 -0.022207435 0.04702037 0.033872835 0.08211947 0.0026047132 -0.054562602
0.017266816 0.02172445 0.15048893 0.082834855 0.0953354 0.0019650839 0.024928734 -0.06626652
-0.06219528 -0.05286296 -0.016619628 -0.059284862 0.009416385 -0.030485287 -0.061208278 -0.059601273
-0.03427709 0.011596227 -0.017974308 -0.044934116 -0.06971942 -0.08693089 -0.060791727 0.0065458263
-0.107548125 0.02463276 -0.00557335 -0.03785141 0.031951983 0.049688075 0.033582594 -0.058946103
0.004803329 -0.080545716 -0.021819683 -0.09242244 0.07018628 0.013404099 -0.121707 -0.07231882
0.03428912 -0.053501103 0.019882211 0.021188773 0.06705792 0.08622761 -0.010011204 -0.09566718
-0.0121127665 0.093220465 0.09520525 0.078683525 -0.041468684 -0.012913737 -0.085475534 0.0064354474
0.01751682 -0.0029310677 0.036723267 0.0760154 0.027295634 -0.014203087 0.015568034 -0.06605751
0.026016675 0.052817333 -0.060738463 -0.016106851 -0.06350893 0.013539494 -0.02738199 0.058346957
0.03295576 -0.08306831 -0.06964516 -0.07940851 -0.03785157 -0.044692434 -0.012863808 0.03802952
-0.06735433 0.051594447 0.029235888 0.06458897 -0.06491871 -0.07387693 -0.010137768 0.029915612
-0.040673777 0.045423184 0.08444349 0.06877131 0.0055747423 -0.027555062 0.03674367 -0.03210464
-0.087049715 0.038336657 -0.07411149 0.06820167 -0.048548963 -0.0782486 -0.0013727597 -0.029236104
-0.032847725 0.0389641 0.049930286 -0.053550694 0.010101726 -0.036952008 -0.07016528 0.07529596
0.00641387 -0.08420628 0.059210896 0.040168244 -0.076925404 0.043256577 -0.0771851 0.07185643
0.027921528 -0.0799056 0.0030770604 0.060202263 -0.034290504 0.05103864 0.03237666 -0.04477201
0.08725051 -0.011059286 -0.06550251 -0.043701414 0.014838999 0.0711988 -0.013809602 0.04512093
0.015222325 -0.05135401 0.058992814 -0.08031128 -0.050999857 0.04470284 -0.02911581 -0.056630168
0.07642746 -0.065229125 -0.077694595 0.0828756 -0.053056758 0.02635768 0.020200575 -0.059100542
-0.062682964 0.07633109 -0.012683921 -0.06921203 0.06821424 0.0070779943 -0.037009377 -0.023145627
-0.03861371 -0.05608841 -0.041792393 -0.08601408 -0.0702093 -0.010325978 0.04239936 0.058718022
0.051294196 0.08508493 -0.052163906 0.06000852 0.068128765 -0.07855886 -0.0017941807 0.04675667
0.07629721 0.030202841 -0.016886333 0.042095438 -0.037772384 -0.076665826 0.047087163 0.0070575983
00000000: 92f3 74bd 3a2d 02bd 67b4 163d 9e2a ec3c
00000010: 6c85 873d 4b46 153d 3de4 b5bd a99c 2c3d
00000020: d161 243d 7c0f 8f3d 142f 353c 2177 e23c
00000030: 0540 83bc 1756 b73a 9518 853d f8ce b23c
00000040: dd3f 9a3d aa64 1abd 6280 8a3c cc79 c7bd
00000050: a4ee f1bc 9870 40bd 9300 6ebd 7204 123d
00000060: a09c 97bd 9960 a0bd fee7 78bd 1b16 a63d
00000070: 0436 fb3c 7866 80bd d144 f93b e1f3 57bd
00000080: 5c7f 51bc 65d1 90bd 29c7 5bbd cf7c fabc
00000090: 4a4a 413d f6bd 9abd dabf 6fbd 81f6 6c3d
000000a0: df8c 473c 4edd ebbc 5ac9 ad3d c90d a83d
000000b0: f47a 5e3d c26e e2bc 1669 73bd 8f06 86bd
000000c0: d162 963d 4762 4e3c 1262 853d 8782 4abc
000000d0: 45ff c8bb 6e05 82bd 82d8 bd3a ade0 76bc
000000e0: 6c84 93bc 3d51 7fbd 3132 903c 4452 74bc
000000f0: ffe1 ae3d ab70 90bd 34a7 9bbd 4e0a 223b
00000100: 1b0e 9d3b 6587 c6ba 5eec b5bc 6e98 403d
00000110: 3ebe 0a3d 412e a83d d6b3 2a3b 097d 5fbd
00000120: 2373 8d3c 79f7 b13c c519 1a3e 52a5 a93d
00000130: 353f c33d a3c8 003b 5837 cc3c beb6 87bd
00000140: 7ac0 7ebd d586 58bd e325 88bc afd4 72bd
00000150: 2e47 1a3c 48bc f9bc 88b5 7abd 7720 74bd
00000160: 2266 0cbd 1afe 3d3c db3e 93bc d60c 38bd
00000170: 0ec9 8ebd d308 b2bd bf00 79bd 5f7e d63b
00000180: 3142 dcbd a4ca c93c a6a0 b6bb 150a 1bbd
00000190: 15e0 023d b985 4b3d e78d 093d 7871 71bd
000001a0: 3e65 9d3b 27f5 a4bd 31bf b2bc fa47 bdbd
000001b0: d3bd 8f3d de9c 5b3c 8541 f9bd e41b 94bd
000001c0: c072 0c3d f923 5bbd 05e0 a23c 1494 ad3c
000001d0: aa55 893d 1a98 b03d 0806 24bc 28ed c3bd
000001e0: a074 46bc 5fea be3d f8fa c23d d424 a13d
000001f0: 11db 29bd 2494 53bc cc0d afbd 72e0 d23b
00000200: 6f7f 8f3c 2817 40bb 236b 163d f6ad 9b3d
00000210: 189b df3c 11b4 68bc 1111 7f3c 2949 87bd
00000220: ec20 d53c fd56 583d e5c8 78bd 84f2 83bc
00000230: f810 82bd c1d4 5d3c 3250 e0bc 38fd 6e3d
00000240: 9efc 063d b81f aabd 1fa2 8ebd eea0 a2bd
00000250: 3f0a 1bbd 6a0f 37bd b9c2 52bc d8c4 1b3d
00000260: 11f1 89bd b354 533d 1a80 ef3c 3947 843d
00000270: 1af4 84bd ca4c 97bd e218 26bc 9611 f53c
00000280: 8c99 26bd a90d 3a3d b5f0 ac3d f9d7 8c3d
00000290: 54ac b63b 27bb e1bc 8880 163d 2880 03bd
000002a0: 1f47 b2bd e606 1d3d c4c7 97bd 51ad 8b3d
000002b0: 47db 46bd cd40 a0bd 2cee b3ba 8e80 efbc
000002c0: 568b 06bd d298 1f3d b383 4c3d f957 5bbd
000002d0: b681 253c fd5a 17bd d0b2 8fbd c534 9a3d
000002e0: 712b d23b 5874 acbd 2087 723d 7587 243d
000002f0: 118b 9dbd cf2d 313d 3913 9ebd 7729 933d
00000300: b0bb e43c 8ca5 a3bd 82a8 493b a696 763d
00000310: 3374 0cbd e50d 513d 639d 043d db62 37bd
00000320: 65b0 b23d 0232 35bc 2e26 86bd 4100 33bd
00000330: 461f 733c add0 913d ab41 62bc b9d0 383d
00000340: 0f67 793c 9558 52bd 73a2 713d 3e7a a4bd
00000350: 3ae5 50bd 531a 373d 4784 eebc 09f5 67bd
00000360: 0086 9c3d d996 85bd 581e 9fbd afba a93d
00000370: 0b52 59bd 10ec d73c ad7b a53c 6913 72bd
00000380: ed5f 80bd 7953 9c3d 38d0 4fbc 09bf 8dbd
00000390: e8b3 8b3d 85ee e73b 2597 17bd e69b bdbc
000003a0: 6929 1ebd f6bc 65bd 802e 2bbd 2628 b0bd
000003b0: e5c9 8fbd 4a2e 29bc f4aa 2d3d 4f82 703d
000003c0: dd19 523d 0241 ae3d d2a9 55bd 7ecb 753d
000003d0: 1887 8b3d 78e3 a0bd b72a ebba ec83 3f3d
000003e0: b641 9c3d f36b f73c 3555 8abc 446c 2c3d
000003f0: 37b7 1abd f902 9dbd 78de 403d 6d43 e73b

hidden_layers.2.bias f4 [128]
0.0600442 -0.046002403 0.018063907 0.05320497 0.0075408234 -0.075481094 0.05213607 -0.04918687
0.030024994 -0.02495793 0.13273345 -0.07461602 -0.029432263 0.011861995 0.019352997 -0.039525326
-0.08548589 0.031832207 -0.071771815 0.033583272 0.06485989 -0.015826603 -0.058515027 -0.07983881
0.027681526 0.049464185 0.060994476 -0.06979919 0.07295106 -0.0040886444 -0.062346254 -0.07923041
-0.04813504 -0.08973763 -0.06185719 8.402925e-05 -0.072129965 -0.0824918 -0.04128585 0.16195579
0.01742465 0.024591254 0.12378259 0.008159069 -0.0802554 0.01170577 0.041964635 0.111102745
-0.010845518 0.07165204 0.035258744 -0.004317793 0.028608784 0.029763507 0.0053612394 0.018387081
-0.07235221 0.05191261 -0.033437688 -0.040956747 -0.03313588 -0.0740703 -0.05697121 -0.049338598
0.07646941 0.06033631 -0.00965481 0.05451728 0.014066037 0.049673777 -0.0056596897 0.049719587
0.019803971 -0.064652 0.020999745 0.0013993869 0.024152106 0.07226104 -0.039524887 -0.013779801
0.07738187 0.045675457 0.051569816 -0.024757676 -0.022329563 -0.04937989 0.059825946 0.038546436
-0.04848469 -0.0416719 -0.08350734 0.030493088 -0.08991172 -0.0078453515 -0.09287278 0.0052647744
-0.102293074 0.044651203 0.011996861 -0.084359355 -0.07954213 0.077344574 0.024875429 0.08586481
0.03780224 -0.05652037 -0.032076586 0.0126400385 -0.06131662 0.05776057 0.006665204 0.090016305
-0.0011808516 0.011582905 -0.08733166 -0.035937797 -0.021221796 0.057426654 0.028179672 -0.04297015
-0.069930136 0.014337222 0.035313915 -0.0041013253 0.017591072 0.0042779963 -0.035857856 -0.024531724
00000000: e8f0 753d 046d 3cbd c2fa 933c 74ed 593d
00000010: 0319 f73b d595 9abd a28c 553d 2c78 49bd
00000020: faf6 f53c 9374 ccbc 47eb 073e 49d0 98bd
00000030: ee1b f1bc d058 423c 2d8a 9e3c 4fe5 21bd
00000040: 3a13 afbd 7d62 023d 1afd 92bd 9d8e 093d
00000050: 43d5 843d cba6 81bc 74ad 6fbd 8882 a3bd
00000060: 5ec4 e23c f59a 4a3d 58d5 793d e1f2 8ebd
00000070: 5e67 953d 09fa 85bb c95e 7fbd 8e43 a2bd
00000080: 3f29 45bd 5dc8 b7bd f75d 7dbd dc38 b038
00000090: e0b8 93bd 76f1 a8bd 5a1b 29bd bdd7 253e
000000a0: 24be 8e3c 9973 c93c ba81 fd3d 9ead 053c
000000b0: f15c a4bd 8fc9 3f3c 1ce3 2b3d d689 e33d
000000c0: 66b1 31bc 4ebe 923d 796b 103d 467c 8dbb
000000d0: f85c ea3c 99d2 f33c 56ad af3b 81a0 963c
000000e0: 652d 94bd 51a2 543d f5f5 08bd 43c2 27bd
000000f0: 7db9 07bd 2bb2 97bd a55a 69bd 4517 4abd
00000100: fe9b 9c3d 3523 773d 352f 1ebc 834d 5f3d
00000110: 3c75 663c bb76 4b3d eb74 b9bb c4a6 4b3d
00000120: f03b a23c 4568 84bd a807 ac3c a26b b73a
00000130: a3da c53c 99fd 933d d9e4 21bd adc4 61bc
00000140: 637a 9e3d 3016 3b3d df3a 533d 9cd0 cabc
00000150: 7dec b6bc 9142 4abd 0d0c 753d dee2 1d3d
00000160: e297 46bd 27b0 2abd e505 abbd a4cc f93c
00000170: a323 b8bd ca89 00bc 1634 bebd 2184 ac3b
00000180: 087f d1bd 2ee4 363d 7b8e 443c 99c4 acbd
00000190: fce6 a2bd d566 9e3d 8ec7 cb3c e4d9 af3d
000001a0: 86d6 1a3d e781 67bd bd62 03bd 2a18 4f3c
000001b0: 2327 7bbd 5996 6c3d c967 da3b 785a b83d
000001c0: cec6 9aba 3ac6 3d3c f1da b2bd 8333 13bd
000001d0: 55d9 adbc 3638 6b3d 0ed9 e63c 7801 30bd
000001e0: 8837 8fbd abe6 6a3c 53a5 103d 6964 86bb
000001f0: 271b 903c 6f2e 8c3b b0df 12bd c1f6 c8bc

hidden_layers.3.weight f4 [128, 128]
-0.015817555 -0.0800452 -0.054913644 0.007608033 0.041010443 -0.055657346 0.0042278133 -0.0481959
-0.078394525 -0.07199519 -0.024474695 0.045571953 -0.06475784 0.08087311 -0.06446196 -0.088147394
-0.056214526 0.06284516 0.08644924 0.026054075 -0.050727714 0.087211944 0.0480533 0.087574214
0.010461269 -0.05536448 0.032313913 -0.06094312 0.052906685 0.0036056524 0.009834345 0.016944867
0.05355268 0.044399545 0.06294994 0.011696878 -0.025094444 -0.007358819 0.030661874 -0.06930363
-0.082435824 0.0298288 -0.06537864 0.020900864 -0.0708951 0.015906926 -0.06857899 0.0794627
0.017654229 -0.050257027 0.08780724 -0.027913963 0.078147866 -0.08266408 -0.04079482 -0.033831455
-0.04446033 0.07642377 -0.024679404 0.0704588 0.029009655 0.057024423 0.0056070797 0.08079451
0.06971375 0.06099102 -0.06657268 0.0077554835 0.08670939 -0.051154282 -0.047745265 -0.082506835
-0.055570357 0.07389297 -0.023850564 0.014286 -0.06664484 0.008431993 -0.08236959 -0.059985206
0.0682272 0.003430332 -0.075973295 0.024488172 -0.040994205 0.0818823 0.08456705 0.070191294
-0.06381669 -0.026156913 0.017355314 -0.083396494 -0.074136674 -0.02252082 0.07870145 0.08448669
0.03058875 0.01678239 0.0497814 -0.011150728 -0.07756858 0.077446304 -0.084921926 -0.03216071
0.017337264 0.018421808 0.044779036 0.010938087 0.07899602 -0.028761473 -0.079652935 -0.011297631
0.039171647 0.048881017 -0.061621506 -0.054704152 -0.07945742 0.043394543 -0.04346052 0.021701822
0.027643412 0.08223647 0.08227313 0.06835379 -0.03610686 0.043948077 -0.06533095 -0.06587567
0.035185788 -0.068974115 -0.067076445 0.0718075 -0.08636339 0.055610713 -0.0033279662 0.046476796
-0.09154732 -0.07713394 -0.08557926 -0.048618358 -0.07343761 -0.05102108 -0.017032659 0.04846669
-0.030758854 -0.08753366 -0.0050102277 -0.0133092925 0.06263456 -0.063358545 -0.020250158 0.051795688
0.047018822 0.0430521 0.08920621 -0.037190873 0.025950018 -0.06625141 0.035710957 0.042380225
0.03302138 -0.0020361142 0.020912066 -0.045512166 -0.03576298 -0.001373218 -0.08666084 0.01183361
-0.01742217 0.039827388 -0.072242945 0.022487827 -0.071196735 0.029002348 -0.021387337 0.05920397
0.040901635 0.037016205 0.08108707 0.018299902 0.01666146 0.045174435 -0.020002138 -0.08568938
0.037624966 0.05652161 0.045048885 -0.051853012 0.06783167 0.015368133 -0.0455025 -0.05475968
0.087695554 0.0077268663 -0.034236412 0.07762468 0.033046626 -0.08551534 -0.082825586 -0.058204565
-0.04555078 -0.046483908 0.08410735 -0.0071956385 -0.011787509 0.053523827 0.030355541 0.07635391
-0.08195292 -0.09074538 -0.03666808 -0.039658178 -0.014942898 -0.010606718 -0.055010825 -0.041921485
-0.054222498 0.08628644 0.053120933 -0.084790654 -0.027671166 -0.02899053 0.037485227 0.0170888
-0.040450625 -0.0030653619 0.051317006 0.08338433 -0.07051915 0.000497797 -0.046606023 0.06641387
0.034664046 0.06031171 0.05022642 0.041855924 -0.02863089 0.027049173 0.049242105 -0.043916255
0.041550443 -0.015840247 -0.0065342155 -0.06176594 0.0065844757 -0.07934931 -0.041132975 0.011966543
0.036723644 -0.049282786 0.0052269427 0.064796865 -0.02235191 -0.0759708 0.01256585 -0.049668096
00000000: d193 81bc bdee a3bd 21ed 60bd ce4c f93b
00000010: 91fa 273d f5f8 63bd 7889 8a3b 1069 45bd
00000020: 4f8d a0bd 3772 93bd 287f c8bc a8a9 3a3d
00000030: c29f 84bd cda0 a53d a204 84bd 9f86 b4bd
00000040: 3441 66bd f7b4 803d 4d0c b13d 5b6f d53c
00000050: ddc7 4fbd 2d9c b23d 89d3 443d 1c5a b33d
00000060: be65 2b3c ddc5 62bd 985b 043d 7e9f 79bd
00000070: aeb4 583d cf4c 6c3b 3c20 213c f6cf 8a3c
00000080: 0e5a 5b3d 4cdc 353d e6eb 803d 43a4 3f3c
00000090: dd92 cdbc 3f22 f1bb 9c2e fb3c 10ef 8dbd
000000a0: 1dd4 a8bd 875b f43c 3de5 85bd 4a38 ab3c
000000b0: 7331 91bd 3e4f 823c 2473 8cbd 57bd a23d
000000c0: 9a9f 903c 50da 4dbd 48d4 b33d d3ab e4bc
000000d0: fd0b a03d c94b a9bd 7818 27bd da92 0abd
000000e0: 091c 36bd 1184 9c3d 762c cabc b44c 903d
000000f0: a8a5 ed3c 7192 693d 98bb b73b 9877 a53d
00000100: 15c6 8e3d b8d1 793d 4257 88bd b621 fe3b
00000110: b194 b13d 2787 51bd 8a90 43bd 58f9 a8bd
00000120: be9d 63bd 3355 973d 4262 c3bc d40f 6a3c
00000130: 177d 88bd 5826 0a3c 63b1 a8bd 0cb3 75bd
00000140: b4ba 8b3d 6ccf 603b e397 9bbd 6b9b c83c
00000150: 8ae9 27bd e8b1 a73d 7d31 ad3d 74c0 8f3d
00000160: 53b2 82bd 0647 d6bc bb2c 8e3c c8cb aabd
00000170: f8d4 97bd 957d b8bc 3a2e a13d 5c07 ad3d
00000180: 4295 fa3c 397b 893c 95e7 4b3d 8bb1 36bc
00000190: 47dc 9ebd 2b9c 9e3d 8ceb adbd f3ba 03bd
000001a0: e106 8e3c 55e9 963c 396a 373d a935 333c
000001b0: aac8 a13d 2e9d ebbc 1421 a3bd b319 39bc
000001c0: 7372 203d 7637 483d d566 7cbd 7611 60bd
000001d0: 92ba a2bd 7abe 313d a903 32bd 05c8 b13c
000001e0: 7074 e23c 986b a83d d17e a83d 12fd 8b3d
000001f0: c9e4 13bd e602 343d 3ccc 85bd d3e9 86bd
00000200: f91e 103d 4d42 8dbd 605f 89bd d00f 933d
00000210: 4adf b0bd 0fc8 633d 021a 5abb 745e 3e3d
00000220: 297d bbbd 66f8 9dbd 2e44 afbd 0b24 47bd
00000230: 7566 96bd 7bfb 50bd 1388 8bbc 0285 463d
00000240: fef9 fbbc d944 b3bd d62c a4bb 380f 5abc
00000250: 8c46 803d 20c2 81bd a9e3 a5bc b727 543d
00000260: cf96 403d 6657 303d bfb1 b63d 7555 18bd
00000270: 2295 d43c d2ae 87bd a745 123d e396 2d3d
00000280: 6d41 073d 5470 05bb c84f ab3c f76a 3abd
00000290: 347c 12bd 8dfd b3ba 3d7b b1bd c2e1 413c
000002a0: f0b8 8ebc 0b22 233d 1cf4 93bd 6438 b83c
000002b0: 98cf 91bd 5596 ed3c 7f34 afbc dd7f 723d
000002c0: 7988 273d 4e9e 173d fa10 a63d ade9 953c
000002d0: 9d7d 883c d408 393d 86db a3bc ea7d afbd
000002e0: a31c 1a3d 3483 673d 2e85 383d d363 54bd
000002f0: 55eb 8a3d 9fca 7b3c d460 3abd b04b 60bd
00000300: ba99 b33d a731 fd3b 7b3b 0cbd b0f9 9e3d
00000310: e65b 073d ab22 afbd 76a0 a9bd e967 6ebd
00000320: 7493 3abd e965 3ebd 7940 ac3d 64c9 ebbb
00000330: 6520 41bc cd3b 5b3d 2fac f83c 705f 9c3d
00000340: efd6 a7bd b7d8 b9bd 4531 16bd 9d70 22bd
00000350: 0fd3 74bc cdc7 2dbc 0853 61bd ddb5 2bbd
00000360: 6918 5ebd f2b6 b03d 5695 593d b9a6 adbd
00000370: a4ae e2bc 8c7d edbc 1c8a 193d d0fd 8b3c
00000380: 8eaf 25bd 3de4 48bb c831 523d 67c5 aa3d
00000390: 586c 90bd 977e 023a f5e5 3ebd ff03 883d
000003a0: e3fb 0d3d 6909 773d 38ba 4d3d 1e71 2b3d
000003b0: 548b eabc 3a96 dd3c 17b2 493d 88e1 33bd
000003c0: cc30 2a3d 68c3 81bc f91c d6bb 48fe 7cbd
000003d0: 96c2 d73b e481 a2bd 0d7b 28bd 520f 443c
000003e0: 886b 163d bfdc 49bd c646 ab3b 38b4 843d
000003f0: 5a1b b7bc 9496 9bbd ffe0 4d3c c670 4bbd

hidden_layers.3.bias f4 [128]
-0.03328519 0.006027093 -0.016693793 0.024465682 0.022332521 0.091416776 0.012231808 0.060692012
0.059764475 -0.033726268 -0.04585894 -0.047930956 0.046979718 -0.05294167 -0.045674447 -0.008063116
0.09214719 0.05437419 -0.021619443 -0.05270511 0.02569496 -0.04345258 -0.013918573 -0.072017565
-0.038327742 0.018968586 -0.020966588 -0.019462245 0.06188371 0.036109883 0.023129476 -0.06062108
0.07183424 -0.060340546 0.024414897 -0.08451425 0.08331436 0.08807169 0.041391373 0.048871744
-0.021825464 0.17771268 -0.031749148 -0.009490735 0.054998145 -0.027610065 0.07752883 -0.039882373
0.037908625 -0.11554879 -0.08405736 0.025943521 0.13649303 -0.015405411 -0.025574561 -0.05116956
0.06182786 0.040601086 -0.083831094 -0.06962324 -0.061063375 -0.0426546 0.046451744 -0.058198363
-0.04663123 -0.09709046 -0.0019583544 0.023778558 0.0625671 -0.07484265 0.120650746 -0.05279928
0.08755772 -0.06719419 -0.039769407 -0.00022634213 -0.036049318 -0.03730755 0.045690924 0.03111197
0.08356636 -0.05709235 -0.08001798 0.03518812 0.0011905521 -0.008272243 -0.0087566255 0.033935964
0.09962648 0.0048942273 0.087954685 -0.023103237 -0.0135195395 -0.08663504 0.05443199 -0.05452701
0.08034909 0.053114798 0.063899204 -0.03871311 -0.046012558 -0.058344446 0.022115557 0.11387996
0.02681691 -0.031161476 0.034691054 -0.02281051 -0.045210123 -0.058673248 -0.046973698 0.1157431
-0.07662299 -0.07082834 0.042913795 -0.014776973 0.027787983 0.046180293 0.026984472 -0.025651203
0.06328052 0.12151284 -0.078457534 0.096614756 0.054319754 -0.07678013 0.085375346 0.08289832
00000000: 0d56 08bd ec7e c53b 6cc1 88bc 416c c83c
00000010: b1f2 b63c b838 bb3d ec67 483c 3098 783d
00000020: 98cb 743d 8e24 0abd 95d6 3bbd 4053 44bd
00000030: ce6d 403d 5dd9 58bd 2115 3bbd 291b 04bc
00000040: aab7 bc3d 78b7 5e3d 421b b1bc 50e1 57bd
00000050: 3d7e d23c 55fb 31bd ba0a 64bc f27d 93bd
00000060: 8dfd 1cbd 0264 9b3c 1fc2 abbc 496f 9fbc
00000070: c679 7d3d f5e7 133d 077a bd3c cf4d 78bd
00000080: d41d 933d a627 77bd c001 c83c cf15 adbd
00000090: b8a0 aa3d ee5e b43d 008a 293d bd2d 483d
000000a0: 51cb b2bc 50fa 353e 650b 02bd 077f 1bbc
000000b0: bc45 613d 812e e2bc 6fc7 9e3d b35b 23bd
000000c0: 1346 1b3d d8a4 ecbd 4426 acbd 8287 d43c
000000d0: d4c4 0b3e fa66 7cbc be81 d1bc 2c97 51bd
000000e0: 363f 7d3d 534d 263d a3af abbd a196 8ebd
000000f0: 971d 7abd 97b6 2ebd 2f44 3e3d 6861 6ebd
00000100: 6300 3fbd 5dd7 c6bd bc57 00bb 40cb c23c
00000110: 2e23 803d 1a47 99bd bd17 f73d 0f44 58bd
00000120: 7651 b33d 1c9d 89bd 3fe5 22bd 4156 6db9
00000130: 73a8 13bd cdcf 18bd 6826 3b3d 88de fe3c
00000140: d724 ab3d abd9 69bd 77e0 a3bd 6b21 103d
00000150: 4d0c 9c3a 4d88 07bc f377 0fbc 7000 0b3d
00000160: f808 cc3d c15f a03b 9621 b43d 0043 bdbc
00000170: 0f81 5dbc b66d b1bd 14f4 5e3d b757 5fbd
00000180: 108e a43d e78e 593d 96dd 823d a391 1ebd
00000190: aa77 3cbd 96fa 6ebd af2b b53c e539 e93d
000001a0: 23af db3c 5a46 ffbc 3518 0e3d 1bdd babc
000001b0: 402e 39bd 5c53 70bd 7e67 40bd b80a ed3d
000001c0: 84ec 9cbd 730e 91bd 60c6 2f3d 1e1b 72bc
000001d0: a0a3 e33c 8c27 3d3d 8a0e dd3c 7922 d2bc
000001e0: 3899 813d b9db f83d 58ae a0bd f5dd c53d
000001f0: 647e 5e3d e73e 9dbd 45d9 ae3d 98c6 a93d
